his_POCs/models_o1/RP500_RCNN.pth (torch, 497826 bytes, 24 tensors)

hidden f4 [1, 3, 200, 200]
00000000: 0000 0000 d8e8 363e fc0d 363e 27d7 1a3e
00000010: 89e3 193e 7e94 203e df6d 1e3e 647c 1d3e
00000020: 5425 1e3e 122d 1e3e a21c 1e3e 311b 1e3e
00000030: 9b1d 1e3e 7f1e 1e3e e21d 1e3e d81d 1e3e
00000040: 021e 1e3e 081e 1e3e 011e 1e3e 001e 1e3e
00000050: 021e 1e3e 031e 1e3e 021e 1e3e 021e 1e3e
00000060: 021e 1e3e 021e 1e3e 021e 1e3e 021e 1e3e
00000070: 021e 1e3e 021e 1e3e 021e 1e3e 031e 1e3e
00000080: 031e 1e3e 021e 1e3e 031e 1e3e 031e 1e3e
00000090: 021e 1e3e 011e 1e3e 011e 1e3e 021e 1e3e
000000a0: 011e 1e3e 001e 1e3e ff1d 1e3e 001e 1e3e
000000b0: 001e 1e3e 001e 1e3e 001e 1e3e 011e 1e3e
000000c0: 001e 1e3e 011e 1e3e 001e 1e3e 001e 1e3e
000000d0: 001e 1e3e 001e 1e3e 001e 1e3e 001e 1e3e
000000e0: 001e 1e3e 001e 1e3e 001e 1e3e 001e 1e3e
000000f0: 001e 1e3e 001e 1e3e 001e 1e3e 001e 1e3e
00000100: 001e 1e3e 001e 1e3e 001e 1e3e 001e 1e3e
00000110: 001e 1e3e 001e 1e3e 001e 1e3e 001e 1e3e
00000120: 001e 1e3e 001e 1e3e 001e 1e3e 001e 1e3e
00000130: 001e 1e3e 001e 1e3e 001e 1e3e 001e 1e3e
00000140: 001e 1e3e 001e 1e3e 001e 1e3e 001e 1e3e
00000150: 001e 1e3e 001e 1e3e 001e 1e3e 001e 1e3e
00000160: 001e 1e3e 001e 1e3e 001e 1e3e 001e 1e3e
00000170: 011e 1e3e 001e 1e3e 011e 1e3e 011e 1e3e
00000180: 011e 1e3e 011e 1e3e 001e 1e3e 001e 1e3e
00000190: 001e 1e3e 001e 1e3e 001e 1e3e 001e 1e3e
000001a0: 001e 1e3e 011e 1e3e 001e 1e3e 011e 1e3e
000001b0: 001e 1e3e 001e 1e3e 001e 1e3e 001e 1e3e
000001c0: 001e 1e3e 001e 1e3e 001e 1e3e 001e 1e3e
000001d0: 001e 1e3e 001e 1e3e 001e 1e3e 001e 1e3e
000001e0: 001e 1e3e 001e 1e3e 001e 1e3e 001e 1e3e
000001f0: 011e 1e3e 001e 1e3e 011e 1e3e 001e 1e3e
00000200: 001e 1e3e 001e 1e3e 011e 1e3e 001e 1e3e
00000210: 011e 1e3e 011e 1e3e 021e 1e3e 001e 1e3e
00000220: 001e 1e3e 001e 1e3e 001e 1e3e 001e 1e3e
00000230: 011e 1e3e 001e 1e3e 011e 1e3e 001e 1e3e
00000240: 011e 1e3e 001e 1e3e 011e 1e3e 001e 1e3e
00000250: 001e 1e3e 001e 1e3e 001e 1e3e 001e 1e3e
00000260: 001e 1e3e 001e 1e3e 001e 1e3e 001e 1e3e
00000270: 011e 1e3e 001e 1e3e 011e 1e3e 001e 1e3e
00000280: 001e 1e3e 001e 1e3e 011e 1e3e 001e 1e3e
00000290: 011e 1e3e 011e 1e3e 001e 1e3e 011e 1e3e
000002a0: 001e 1e3e 001e 1e3e 001e 1e3e 001e 1e3e
000002b0: 001e 1e3e 021e 1e3e 021e 1e3e 001e 1e3e
000002c0: 031e 1e3e 041e 1e3e 031e 1e3e 041e 1e3e
000002d0: 031e 1e3e 011e 1e3e 001e 1e3e fb1d 1e3e
000002e0: ee1d 1e3e 211e 1e3e e51e 1e3e 821f 1e3e
000002f0: 0f20 1e3e 6316 1e3e 3600 1e3e 3136 1e3e
00000300: 1990 1e3e 4def 1e3e ba11 1e3e 2b18 273e
00000310: 3808 293e 44ac 1e3e 2c55 c43d 2fae 893d
00000320: 6369 b13d ebe7 0d3f fc16 aa3e 1aa0 ac3e
00000330: 6c22 b03e 7aca b93e 3805 b83e d575 b73e
00000340: 05e4 b73e c9f3 b73e 0ae6 b73e a3e4 b73e
00000350: ede5 b73e d2e6 b73e 73e6 b73e 63e6 b73e
00000360: 85e6 b73e 8ae6 b73e 88e6 b73e 86e6 b73e
00000370: 86e6 b73e 87e6 b73e 87e6 b73e 87e6 b73e
00000380: 87e6 b73e 87e6 b73e 86e6 b73e 87e6 b73e
00000390: 85e6 b73e 87e6 b73e 86e6 b73e 86e6 b73e
000003a0: 87e6 b73e 87e6 b73e 87e6 b73e 86e6 b73e
000003b0: 84e6 b73e 84e6 b73e 84e6 b73e 84e6 b73e
000003c0: 82e6 b73e 82e6 b73e 82e6 b73e 83e6 b73e
000003d0: 83e6 b73e 83e6 b73e 83e6 b73e 83e6 b73e
000003e0: 83e6 b73e 83e6 b73e 82e6 b73e 83e6 b73e
000003f0: 83e6 b73e 83e6 b73e 83e6 b73e 83e6 b73e
0.0 0.1786226 0.17778772 0.15121137 0.15028204 0.15681645 0.154716 0.15379483
0.15443927 0.1544688 0.1544061 0.1544006 0.15440981 0.15441321 0.15441087 0.15441072
0.15441135 0.15441144 0.15441133 0.15441132 0.15441135 0.15441136 0.15441135 0.15441135
0.15441135 0.15441135 0.15441135 0.15441135 0.15441135 0.15441135 0.15441135 0.15441136
0.15441136 0.15441135 0.15441136 0.15441136 0.15441135 0.15441133 0.15441133 0.15441135
0.15441133 0.15441132 0.1544113 0.15441132 0.15441132 0.15441132 0.15441132 0.15441133
0.15441132 0.15441133 0.15441132 0.15441132 0.15441132 0.15441132 0.15441132 0.15441132
0.15441132 0.15441132 0.15441132 0.15441132 0.15441132 0.15441132 0.15441132 0.15441132
0.15441132 0.15441132 0.15441132 0.15441132 0.15441132 0.15441132 0.15441132 0.15441132
0.15441132 0.15441132 0.15441132 0.15441132 0.15441132 0.15441132 0.15441132 0.15441132
0.15441132 0.15441132 0.15441132 0.15441132 0.15441132 0.15441132 0.15441132 0.15441132
0.15441132 0.15441132 0.15441132 0.15441132 0.15441133 0.15441132 0.15441133 0.15441133
0.15441133 0.15441133 0.15441132 0.15441132 0.15441132 0.15441132 0.15441132 0.15441132
0.15441132 0.15441133 0.15441132 0.15441133 0.15441132 0.15441132 0.15441132 0.15441132
0.15441132 0.15441132 0.15441132 0.15441132 0.15441132 0.15441132 0.15441132 0.15441132
0.15441132 0.15441132 0.15441132 0.15441132 0.15441133 0.15441132 0.15441133 0.15441132
0.15441132 0.15441132 0.15441133 0.15441132 0.15441133 0.15441133 0.15441135 0.15441132
0.15441132 0.15441132 0.15441132 0.15441132 0.15441133 0.15441132 0.15441133 0.15441132
0.15441133 0.15441132 0.15441133 0.15441132 0.15441132 0.15441132 0.15441132 0.15441132
0.15441132 0.15441132 0.15441132 0.15441132 0.15441133 0.15441132 0.15441133 0.15441132
0.15441132 0.15441132 0.15441133 0.15441132 0.15441133 0.15441133 0.15441132 0.15441133
0.15441132 0.15441132 0.15441132 0.15441132 0.15441132 0.15441135 0.15441135 0.15441132
0.15441136 0.15441138 0.15441136 0.15441138 0.15441136 0.15441133 0.15441132 0.15441124
0.15441105 0.15441181 0.15441473 0.15441707 0.15441917 0.15438227 0.15429768 0.1545036
0.15484656 0.15520974 0.1543645 0.16317813 0.16507041 0.15495402 0.09586558 0.06722676
0.08662679 0.55432004 0.3322066 0.33715898 0.34401262 0.3628729 0.35941482 0.35832086
0.35916153 0.3592818 0.35917693 0.35916623 0.35917607 0.3591829 0.35918006 0.3591796
0.3591806 0.35918075 0.3591807 0.35918063 0.35918063 0.35918066 0.35918066 0.35918066
0.35918066 0.35918066 0.35918063 0.35918066 0.3591806 0.35918066 0.35918063 0.35918063
0.35918066 0.35918066 0.35918066 0.35918063 0.35918057 0.35918057 0.35918057 0.35918057
0.3591805 0.3591805 0.3591805 0.35918054 0.35918054 0.35918054 0.35918054 0.35918054
0.35918054 0.35918054 0.3591805 0.35918054 0.35918054 0.35918054 0.35918054 0.35918054

weight f4 [3, 3, 5, 5]
00000000: 991d 7dbd 37e8 29be 83a1 933c 0531 55be
00000010: fd53 abbd 980c 8dbc 497d b03c 4e29 18be
00000020: 300c 82bd 6a28 0e3d 65ca fcbd b2eb ffbc
00000030: d6ba ecbd 5908 0ebe d309 87bd 2ffd f43c
00000040: ba2c 86bb 319f d1bc 2c46 0dbe c436 d0bd
00000050: df0a 55bd 6272 0fbc fdab 85bd 2da1 8dbd
00000060: a762 febd 619c 2a3d 0a97 693d 8c4c 2b3e
00000070: f75f b83d 807d 963c 88b1 b13a a99b 10be
00000080: 14ce 623d 7871 ccbc 46e7 933d b2f9 9dbd
00000090: e69f 013e 9abf 313d ea2b a83d 47c4 44bc
000000a0: 78d1 1fbd 1835 403c 2b73 a93d b0dd 31bd
000000b0: 8825 b03d fbe8 04bd 1dcf ddba 01f0 d13d
000000c0: a333 4fbd e864 2a3d f0da 8b3c 4675 3f3d
000000d0: e9d8 4cbc f351 c1bc 7684 d53d 29bc 63bd
000000e0: 352b 523c 4b01 a13c 94f3 bdbd fa6e a23b
000000f0: 53b2 c1bd d831 99bd 025a 023d 9ef1 a13d
00000100: ed12 a2bd 878a eb3d 78d5 07bd 10ee 0bbd
00000110: 97eb 473d 8934 26bd 1011 1f3b d4b1 cbbc
00000120: 03e2 5fbd 1191 b53d 3603 2e3d 5b89 c4bd
00000130: 8bb5 3dbc c2d2 b43d 38a6 52bd 3ab4 debd
00000140: 67e8 93bd 565a 413d 456e 193d ed47 86bc
00000150: 9709 9e3d 3b3d 513d a272 a13c cbc7 40bd
00000160: 0039 db3b 2c8d 11bc 672e f8bc e1f7 cf3d
00000170: 84de 89bc 10cf 813d 4794 81bd c4d6 85bc
00000180: 32e9 e03c b157 593d 611a b6bb 099d 94bd
00000190: 6675 4b3d 6028 56bd 0685 433a e516 533d
000001a0: 73bf 0f3d bfac 643d 646b 1bbc 0638 133d
000001b0: 463f 15bd e2cf eb3a a201 913d 91fa 48bc
000001c0: 3156 2c3d 3d7d 223d 8497 223c 65b5 073e
000001d0: 3861 db39 92a6 a23d cd90 bbbc 7730 093b
000001e0: ce9a acbd 1203 1abc 3cd8 453d 9d6f b43d
000001f0: cb98 84bd dc9a 98bd bd31 e73b eb85 cbbc
00000200: a068 d7bc 3629 b1bd 8529 9bbd 0b4f abbc
00000210: 0680 28be a972 02be 170c 96bd de83 4a3d
00000220: d72d 323d 9fce b83d 4351 be3b 3622 dbbc
00000230: 4407 ccbd 4856 0bbc 8a03 61bc 1601 1dbe
00000240: 2cb4 18bd 19d6 963c 4f86 c2bc 064b 3a3d
00000250: ee0f ef3c caff 933d e51d a73d 7f08 1abc
00000260: fd2a fe3c 6056 e13d 39ae cb3d 7215 1abc
00000270: f4d5 063e 3175 193d de60 54bd d355 8abc
00000280: 9664 99bd 4e81 e13d 3986 043d c175 303b
00000290: 1b94 b33d 27b1 fe3c 9bb4 cfbb d011 d5bd
000002a0: c390 bfbd 9f1a 6f3d 98b4 d63d f606 d63d
000002b0: 84ba 5b3d fc1b 093c 366a ddbd 521a d1bd
000002c0: cb0e fb3c 5063 8abc 06e6 49bd 5d1d 963d
000002d0: f1f9 363d a38d a8bd 1a68 0c3d 5252 6d3d
000002e0: 7ae0 62bd a7fc a23c 665d 93bc ebf3 d33d
000002f0: f118 96bd 469a c13b 6a1b 4bbc f39c 473d
00000300: 513b 8bbd b424 dd3c baaf 76bc e039 0e3d
00000310: e32b a23c 2f6a adbd 0f75 0f3d 7c71 2bbd
00000320: eee5 95bc 2a6a d33d 9d15 b23d 2b19 123e
00000330: ac74 993d df4c 903d 2cc8 eabc 8814 1bbd
00000340: 238d 6c3d 3102 153d 9775 67bd ba44 f9bd
00000350: 04c2 96bd a3c6 b0bb c50c 54bd e74f ab3d
00000360: 2392 0a3e 9702 c83d c381 123e 3196 083c
00000370: 8142 c8bd 51ae 12bb 8271 b43d d799 a2bd
00000380: 0f8d 203d
-0.061795805 -0.16592489 0.01802135 -0.2081948 -0.08365629 -0.01721792 0.021544116 -0.14859506
-0.06349981 0.03470651 -0.12343291 -0.031240318 -0.115590736 -0.13870372 -0.06593671 0.029905884
-0.0040946873 -0.025588604 -0.137963 -0.10166696 -0.05201232 -0.008755298 -0.06526945 -0.069155075
-0.1242116 0.04165304 0.057028808 0.16728419 0.09002679 0.01837039 0.0013556937 -0.1412188
0.055372313 -0.02495645 0.07221846 -0.07713641 0.12658653 0.043395616 0.08211501 -0.012009687
-0.039018124 0.011731409 0.0827392 -0.04342431 0.086009085 -0.03244875 -0.0016922686 0.10250855
-0.050586354 0.041600138 0.017072171 0.0467427 -0.012502887 -0.023598647 0.104256555 -0.055599365
0.012827684 0.019653937 -0.092749745 0.004957077 -0.09457841 -0.0748021 0.03182412 0.07907413
-0.07913766 0.11501031 -0.033162564 -0.03416258 0.04880866 -0.040577445 0.0024271645 -0.024865068
-0.0546589 0.0886556 0.04248353 -0.09596511 -0.011578928 0.08829261 -0.05142805 -0.10874219
-0.072220616 0.04720529 0.037458677 -0.016391719 0.07716673 0.051083785 0.019707981 -0.047065537
0.0066901445 -0.008883756 -0.030295564 0.10154701 -0.016829737 0.06338322 -0.0632711 -0.01633776
0.027454946 0.053062145 -0.005557344 -0.072565146 0.049672507 -0.0522846 0.00074584817 0.051535506
0.03509469 0.055828806 -0.009486053 0.0359421 -0.036437295 0.0017991031 0.070803896 -0.012266771
0.042074386 0.039670218 0.009923819 0.1325279 0.0004184337 0.07941927 -0.022896195 0.0020933428
-0.08427964 -0.009400146 0.04830192 0.08810351 -0.064744554 -0.07451412 0.00705549 -0.02484413
-0.026295006 -0.086504385 -0.075762786 -0.020911714 -0.16455087 -0.12739052 -0.07326525 0.049442165
0.043500748 0.09023785 0.005808027 -0.026749711 -0.09962323 -0.008504458 -0.013733754 -0.15332446
-0.0372812 0.018412637 -0.023745684 0.045481704 0.0291824 0.07226522 0.08159999 -0.00940144
0.031026358 0.11002803 0.0994534 -0.009404527 0.13167554 0.037465278 -0.051850192 -0.016886627
-0.07489888 0.11010991 0.032354567 0.0026925656 0.08768483 0.031090332 -0.0063386685 -0.10403788
-0.09353783 0.058374997 0.10483664 0.104505464 0.053644672 0.008368488 -0.10811274 -0.10210098
0.030646702 -0.016893059 -0.049291633 0.07329819 0.044671956 -0.0823014 0.034278966 0.057939835
-0.05538986 0.019895865 -0.017988872 0.10349258 -0.07328976 0.0059082834 -0.012396673 0.048733663
-0.06798423 0.02699504 -0.015056545 0.034723163 0.019796317 -0.084675185 0.035023745 -0.041856274
-0.018298116 0.103229836 0.08695529 0.14267413 0.074929565 0.07045912 -0.028659903 -0.037861377
0.057751786 0.036379043 -0.056508627 -0.12171312 -0.07361224 -0.005394773 -0.05176999 0.083648495
0.13532309 0.09766119 0.14307313 0.00833659 -0.097783096 -0.0022381733 0.088107124 -0.07939499
0.039197024

bias f4 [3]
00000000: 3173 b33d 8dfb 8dbd b2f5 e9bc
0.087622054 -0.06932745 -0.02855954

weight f4 [3]
00000000: 3eae b83f 9031 be3f 1eae 9e3f
1.4428174 1.4858875 1.2396886

bias f4 [3]
00000000: e485 163e a565 303e 672f d53e
0.14699513 0.17226274 0.41637728

running_mean f4 [3]
00000000: 7d96 c4be 2b9f 2bbe 9895 a53e
-0.38396063 -0.16759937 0.32340693

running_var f4 [3]
00000000: 6f65 9a3e d331 1b3f 5ce5 ad3f
0.30155513 0.606229 1.358562

weight f4 [1, 3, 3, 3]
00000000: 71e2 bcbe 2860 50be eaa6 87be a17a 8cbe
00000010: 5d71 f0be cb9e 08bf d932 02bf 0cff 53be
00000020: 983b b8be 48b3 99be 1038 afbe 4731 b3be
00000030: 9c6f efbe 2656 bdbe 0471 0abf 9fdc 04bf
00000040: 899a 7bbe 963d 4ebe 737b 8d3e f45b 3c3e
00000050: 2d3b e43e 0d49 e13e d304 b23e ce3e 813e
00000060: c23e 973e 21eb 953e 5654 c03e
-0.3689151 -0.2034918 -0.26494533 -0.27437308 -0.4696149 -0.533673 -0.5085884 -0.20702761
-0.35982966 -0.30019593 -0.3422246 -0.34998533 -0.4676484 -0.3697979 -0.540787 -0.5189914
-0.24570669 -0.2014068 0.27633247 0.18394452 0.44576398 0.44001046 0.34769306 0.2524323
0.29540068 0.29280952 0.37564343

weight f4 [3, 3, 5, 5]
00000000: d542 9bbd d837 03bd 1480 85ba c4a5 a0bd
00000010: 998f a43d a2ce 59bd ecc5 cd3d 042a 13bd
00000020: ebaf 2f3d 70d5 1d3d 9546 423c b5f7 33bd
00000030: 1226 b9bd 5ef5 8d3d 0d55 8dbd 8309 fc3d
00000040: 23fc 443d 224c e03d 0bd9 15bd 0e2e 83bd
00000050: 0511 0fbc 2f3d 3d3d 7d10 adbd ac28 0bbe
00000060: 0062 833d 7dd2 9dba a1de 823d a4c2 a23d
00000070: e46e 9ebd 5788 ac3c 33b4 9fbc a245 f3bd
00000080: d0a8 ae3d abe5 eaba 3550 8fbd c402 52bd
00000090: 27ee 1bbe c2ef abbd 447d 5fbd aadc 5ebc
000000a0: 6ada 81bc a201 8e3d c8cf 97bb 5dac ef3c
000000b0: 8dd8 8abd ba14 bc3d f7e3 8abd 6bb0 96bd
000000c0: 58c6 1e3d d49b 3a3d ba2a 5bbd 3943 9ebd
000000d0: acbb 123d 18f9 693d c52e cdbd e499 c93c
000000e0: c1af 2ebc 2800 57bd 83f7 2a3d 07b1 773c
000000f0: eecf 3b3e cb95 cf3d 237d 043e b96f cabc
00000100: 9afa b33d dd11 a7bd 6fca 3a3d 31ad e3bc
00000110: 49b7 22bc 3aa2 0abd 79d5 8dbd cbf1 0d3d
00000120: d58b 99bd 67b1 b8bc 897b 923a 753c 963d
00000130: 57cd febd 7317 acbd 4d8f 84bd be57 82bc
00000140: 06da 9cba 9574 fb3c e723 cd3c f1f9 62bd
00000150: f994 953c 78bb cfbc 9382 ab3d 2edd a1bd
00000160: 3418 82bc 2262 17bd ca0a acbc ad9d 03bd
00000170: 73c7 b9bd b2a8 91bc 7314 73bc 96c7 f2bc
00000180: 0172 adbb bed4 c5bd 5cb1 a4bd 982b b5bd
00000190: 6648 80bd 6027 67bd 3f34 bdbc 9834 a63a
000001a0: 7242 f33d bf41 413d 1028 0b3e d370 17bd
000001b0: 2a30 1fbc f180 6dbd 89e8 f23d 3567 d8bd
000001c0: aa1e fcbd 67f6 cbbb f472 67bd fa06 a53d
000001d0: 3634 153d b4f3 c0bc 31dd 38bd f7ae a5bb
000001e0: 8c96 4b3d f27c 81bc ae3c 8f3c 5bd2 43bd
000001f0: 1de2 cfbd 2b30 acbd 74ff cbbd 53a5 fcbd
00000200: ba11 b63c fa29 c7bd bdf5 4bbd a38f 8bbc
00000210: 5662 13be a598 51bc 66ff 283c 3784 babd
00000220: 0519 64bd 446a 99bd 3f25 eabc 2aa5 8c3d
00000230: 83f3 9b3d c95c a43b e04b 903d 7312 29bc
00000240: 1c85 ecbd ca5f 76bd e1e9 0dbe a88b 493c
00000250: 8b1d 8cbd 79b6 74bd a584 25bd d50d 32bd
00000260: 2777 683d d67d d0bc b811 80bd 9339 b33d
00000270: b4a5 96bd b474 1e3d 5048 fa3d 3638 023e
00000280: 7fba e43d ab66 33bd 6051 073e 8925 3c3d
00000290: 4807 c83d 669b 873d 156a 903c 6f6a 233e
000002a0: 3c0d ee39 07e2 153d b8c0 94bd e58c c0bd
000002b0: 5302 143d 4119 abbd 3aec 11bc 8849 2cbd
000002c0: 9cde abbd 7498 66bd 5993 f4ba 2ec8 13bd
000002d0: b32a c73d 4326 6ebc 986b 013e 58da ed3d
000002e0: b5ab 70bd 6704 b83d 0d63 713d b518 ffbd
000002f0: 7e49 2b3d 2d4d 023d 3170 9c3d 65ed f0b8
00000300: 75bc b9bd 2bf1 9dbd 7e6d 803c 8ad3 843c
00000310: 093d cbbd 7441 bb3d 1ca7 56bd dc47 993d
00000320: fc10 1bbd ea4c 933d 7644 003e 0941 ae3d
00000330: 7817 393d 593f 693d 87df a1bd e2b3 993b
00000340: f6c5 e03c 9700 a03a b9d4 94bd 7550 e2bd
00000350: b6f0 d4bb ba8d 9b3d 1632 d4bd 50b7 043d
00000360: 3ec0 8b3c 3732 e43d bcd0 0a3e e68f 013d
00000370: 4cc8 abbd dfab 873c f387 ad3d c365 0d3d
00000380: 39c6 05bc
-0.075811066 -0.03203568 -0.0010185265 -0.07844117 0.080352016 -0.053175576 0.10047516 -0.03592874
0.042892378 0.038533628 0.011857648 -0.043937404 -0.090404645 0.06931566 -0.06900988 0.12306502
0.04809202 0.10952021 -0.03658394 -0.064052686 -0.008732085 0.046200927 -0.084504105 -0.13589734
0.064151764 -0.001204088 0.06390119 0.07947281 -0.077359945 0.021061106 -0.019495105 -0.11878516
0.08528292 -0.001792123 -0.0699772 -0.05127217 -0.15227567 -0.083953395 -0.054562822 -0.013602415
-0.015851218 0.06933905 -0.0046329238 0.029256994 -0.06779585 0.09183641 -0.06781762 -0.07357868
0.038763374 0.045558766 -0.053507544 -0.077276655 0.03582351 0.05712232 -0.10018686 0.024609514
-0.01066202 -0.052490383 0.04173995 0.01511789 0.18341038 0.101359926 0.12938361 -0.024711477
0.08788033 -0.08157704 0.045603212 -0.027792545 -0.009931394 -0.033846118 -0.06925482 0.03465442
-0.07497374 -0.02254553 0.0011175732 0.0733575 -0.12441509 -0.0840291 -0.06472645 -0.01591098
-0.0011966832 0.03069524 0.025041534 -0.055414144 0.018259512 -0.025357947 0.083745144 -0.07903515
-0.015880682 -0.03695882 -0.021001238 -0.032132793 -0.09071245 -0.017780636 -0.014836418 -0.029636186
-0.0052931313 -0.09659718 -0.08041641 -0.088462055 -0.06263809 -0.056434035 -0.023096202 0.0012680469
0.11877908 0.04718184 0.13589501 -0.036972832 -0.009716073 -0.057984296 0.11860759 -0.1056656
-0.12310536 -0.006224442 -0.056506112 0.08057971 0.036426745 -0.023553707 -0.04513282 -0.005056258
0.04970412 -0.015806649 0.017484989 -0.047808032 -0.101505496 -0.08407625 -0.09960833 -0.123362206
0.02222525 -0.09724803 -0.0497949 -0.017036265 -0.14392981 -0.012792741 0.010314798 -0.09107249
-0.055687923 -0.07490972 -0.028582213 0.0686744 0.076148055 0.0050159437 0.07045722 -0.01031934
-0.11548826 -0.060149945 -0.13858749 0.012301363 -0.068415724 -0.059744332 -0.040409703 -0.043470223
0.056754258 -0.025450628 -0.062533796 0.08751216 -0.07355824 0.038685516 0.12220824 0.12716755
0.11168384 -0.043799084 0.13214636 0.045934234 0.09767014 0.06621437 0.017628709 0.1595857
0.00045404758 0.03659251 -0.07263321 -0.094018735 0.03613503 -0.08354426 -0.008906418 -0.042062312
-0.08392069 -0.056297734 -0.0018659636 -0.036079578 0.09724941 -0.0145354895 0.126387 0.116139114
-0.058757503 0.08985215 0.058932353 -0.12455884 0.041818134 0.03181188 0.07638586 -0.0001148831
-0.090691485 -0.07712015 0.01567721 0.016214151 -0.09923751 0.091433436 -0.05240546 0.07484409
-0.037857994 0.071924046 0.12526116 0.08508498 0.045188397 0.05694518 -0.079039626 0.004690633
0.027438145 0.0012207207 -0.07267136 -0.11050502 -0.0064984215 0.075953916 -0.10361116 0.032401383
0.017059442 0.1114239 0.13556188 0.031631373 -0.08387813 0.016561447 0.08473196 0.034520876
-0.008164936

bias f4 [3]
00000000: e83c 95bd bd13 613b 7f82 743b
-0.072870076 0.003434404 0.0037309227

weight f4 [3]
00000000: c9b8 9a3f 11fe 853f d65a 883f
1.2087642 1.046816 1.0652721

bias f4 [3]
00000000: 5e2b aebd 0b46 363e 320d 103d
-0.085043654 0.17800157 0.035168834

running_mean f4 [3]
00000000: e838 0ebe e2c0 12bf 9d92 b33e
-0.13888896 -0.57325566 0.35072795

running_var f4 [3]
00000000: adc9 063f 5222 8f3f 9ecd 523f
0.5265148 1.1182349 0.82344997

weight f4 [3, 3, 3, 3]
00000000: 5563 ca3d ae17 ecbd 86be 4dbe 6806 02bb
00000010: e6f0 e1bd e70b b1bd eda9 96bc 799c e6bd
00000020: a1b7 5bbc c1eb 853e 5bf4 4b3d 64f2 86bd
00000030: 3858 c83d f55b ad3d 8f21 813d 46be 853d
00000040: 5dbb b3bc e907 fc3d 3121 1fbe a945 d2bd
00000050: 0574 64bd 568b 06be a4e6 16be 39b9 1fbe
00000060: 217b 5fbe f38d 52be 76ec aa3d 480c eb3d
00000070: 675b 553e 6245 0d3d cf03 9bba 2724 f3bc
00000080: ae5b e43c c9c4 923d c1f3 e93c 1692 893d
00000090: c868 6c3c 9f23 4fbd 14e9 8bbd 3cf5 7e3d
000000a0: 8adb 1f3e 62bc 10be 127b 3f3e d8de 95bd
000000b0: 9848 40be adb4 52bc 853f 083e 8de3 25bb
000000c0: 6263 dc3d db77 243d 636c 7b3c cdad 52bd
000000d0: 7064 27bd 8540 153d a144 573d c2bd d0bd
000000e0: f173 e73c 4938 583e 0aea 873e 9b05 b13e
000000f0: 1dae 27bc 9605 0b3d 2b67 6dbe 754b 5ebe
00000100: 4f09 dfbd f93f 95bc e3b3 3abe 3d37 8cbe
00000110: d562 70be 860d 28be f269 123c 0639 08be
00000120: 03f0 443e f0dd 8a3e a38a 0b3e 0234 09be
00000130: cf38 0dbe a797 183e f5c5 363e 7133 8a3c
00000140: 17e7 9b3d
0.09882227 -0.11527954 -0.2009221 -0.0019840244 -0.11032276 -0.08644848 -0.018391574 -0.112603135
-0.01341048 0.26156428 0.049793582 -0.06589201 0.097824514 0.08464805 0.06305229 0.065304324
-0.021939928 0.12306196 -0.15540005 -0.10267193 -0.055774707 -0.1313909 -0.1473642 -0.15598
-0.21824314 -0.20561962 0.083458826 0.11476952 0.20835648 0.034489997 -0.0011826697 -0.029680325
0.027875748 0.0716644 0.028558614 0.06717317 0.014429279 -0.05057108 -0.068315655 0.062245592
0.15611091 -0.14134362 0.18699291 -0.07317895 -0.18777692 -0.012860459 0.13305481 -0.0025312633
0.10761143 0.040153366 0.015345666 -0.05143528 -0.04086727 0.036438484 0.052555684 -0.101924434
0.028253527 0.21115221 0.26545745 0.3457459 -0.010234383 0.033940874 -0.23183887 -0.21708472
-0.10890447 -0.018218981 -0.18232684 -0.27385893 -0.23475201 -0.16411409 0.008936392 -0.13303003
0.19232182 0.2712245 0.13627104 -0.13398746 -0.13791202 0.14901601 0.17848952 0.016870232
0.07612436

bias f4 [3]
00000000: 4315 c6bc 943e ca3d eb91 613d
-0.02418006 0.09875217 0.0550708

weight f4 [3, 3, 5, 5]
00000000: c551 313c bf8f 973d d1e7 65bd 461a b8bc
00000010: de03 52bd 5068 cb3d a42c 3cbd 44ea 233d
00000020: 4ed9 40bc 7ebb 9abd 0667 7f3d b1b2 43bd
00000030: 2694 61bd 93fb b03d 465c 91bc a24c 5f3d
00000040: e8ac 7d3d 038b e83c 965b b43d 7b03 0abd
00000050: 7a47 563d a8fe 02bd 834f d63d 9957 8c3d
00000060: a70d 7b3d 0c7b e7ba e812 693d 76b9 e03c
00000070: a605 c2bd f15f b0bd 492e e43d 222f 53bb
00000080: 3a49 7e3b 5327 26bd 64eb e0ba 5e16 10bd
00000090: 294f df3d 1b6d c13c def3 d93d 6225 623c
000000a0: 2136 90bd 445b 99bd 133d e13c a777 6a3d
000000b0: 734b 643c 0091 e33d ae2d cbbd c5ef 9e3c
000000c0: 4de9 693d 0b62 e33b cd98 9f3d 61b7 2b3d
000000d0: 4ff7 bbbd e52e 8c3c facb b83d 8a5c 633c
000000e0: 8007 d6bd 08ee bfbd 97d3 f5bc 7da2 953d
000000f0: 32a0 2abe 4290 4bbd b5ef 6d3d aec3 84bd
00000100: c64e cb3a b0db 03be a9d8 96bd c53d 6e3c
00000110: 03d4 96bd 000d 743d 533f 4f3b 9a14 d9bd
00000120: a50e 6d3d 74b4 b1bc 1628 04be 42e3 babc
00000130: 50cd 3a3d b0c5 7b3d 6940 48ba 1fa6 2b3d
00000140: a61a f6ba b584 0f3c bd94 b9bd 9157 64bb
00000150: 6023 56bc 7fca 22bd 5dea cbbd f02d 49bd
00000160: ee09 b3bc 0a65 6b3d 7062 693d e472 a2bd
00000170: d5cf e33d 5448 a63d 4cbf 273c eb57 ce3c
00000180: 4d7b 703d b273 9bbd ce2c c7bd 467c 9a3d
00000190: 419b 413d 51d5 90bc 66ea eebc 7805 1a3d
000001a0: 9868 963c 54f8 a9bd 874d afbd 5869 8dbd
000001b0: fc1e bebd 565c 63bd 67c6 913d d865 e8bc
000001c0: d888 3dbc df95 b6bd 2931 c3bd a325 9dba
000001d0: 47af d2bd aa5b d7bd 99df 1e3d 2b1e 0bbe
000001e0: c2d2 a83d f8a4 a8bd f81b 9fbd 7148 18bd
000001f0: f332 ccbd d66b 58bc b69a 8dbd f367 543d
00000200: 0919 29bd b3ba 253e 1930 0c3c e3b5 033e
00000210: c45b da3d a0c3 443e 5018 d83c dcd0 fabd
00000220: 8e55 86bc 9ed3 bb3d 8a89 0b3d a7c4 8d3d
00000230: 27d4 6f3c ac6d b33d 634e ed3d 7911 0f3d
00000240: 835a 263b b035 1b3d 8991 d5bc 72e1 213d
00000250: 3f78 e03d 73a9 013e 30dc 35bd ba9c 0cbd
00000260: b8ce abbb ec7d 89bc e5fd 2dbd 1e18 debd
00000270: ac8e 083c 1c38 cfbd 97da c0bd 40d3 e0bc
00000280: e94e c1bc 9993 733d 9b00 a8bd 6929 583d
00000290: 8f8a fbbc 894c f0bd 0b2d 0dbe 4b16 adbd
000002a0: b3a9 89bc cbf7 863c 05bd 133c 20ed d6bd
000002b0: 06aa 2b3d 77cd f3bd 4991 9dbd 2404 673d
000002c0: f073 4a3d 2030 373d 1bac 13bd 914e c5bb
000002d0: b400 ffbb bdda 16bd 291e 2c3e d0f4 b23d
000002e0: bb59 c63b dcb2 903c 396a 6b3d 8dfd a0bc
000002f0: d40a 913d 66ff 43bd 7827 e73c 9c86 073e
00000300: 994e 133e 2cf1 98bc 5584 4b3d 7baa b43d
00000310: e91c 1fbd 823d 313d 6f55 043e f587 0fbd
00000320: 338a 4abd 9c05 cebd 486f 2d3c 5090 bbbc
00000330: a1ef 093d cd6d 5fbd ad82 d73d 8093 c33d
00000340: 8954 67bd 6388 133b 4ae1 873d 5825 8dbd
00000350: be52 8c3d a606 96bd 5c9c f9bc 515f 8abd
00000360: 0113 6e3b 2ff9 0bbe 80f2 7f3b eeba 50bd
00000370: e64a 203c f1fe 6b3c 960e c0bc 5717 033d
00000380: 26ce 4f3d
0.010822718 0.07400464 -0.05612928 -0.022473466 -0.05127322 0.099320054 -0.04594101 0.040018335
-0.0117705595 -0.075552925 0.06235411 -0.047777835 -0.055072926 0.08641734 -0.017744195 0.054516442
0.061932474 0.028386598 0.08806531 -0.033694725 0.05231426 -0.03198114 0.104643844 0.068526454
0.061292317 -0.0017660572 0.056902796 0.027432185 -0.094737336 -0.08612049 0.11141641 -0.0032224138
0.003880097 -0.040564846 -0.0017159996 -0.03517758 0.109037705 0.023611596 0.10642217 0.013802858
-0.07041574 -0.07488111 0.027494943 0.057243016 0.013934004 0.11111641 -0.09920822 0.01940144
0.05710726 0.006939178 0.07792816 0.04192293 -0.0917803 0.017112205 0.090232804 0.0138770435
-0.10450649 -0.09371573 -0.03000812 0.07306383 -0.16662672 -0.04969812 0.05808993 -0.064826354
0.0015511147 -0.12876773 -0.073655434 0.014541094 -0.07364657 0.05958271 0.0031623438 -0.105996326
0.057875294 -0.021692492 -0.12905917 -0.022813443 0.045605958 0.061467826 -0.00076389924 0.041906472
-0.0018776252 0.008759667 -0.09061573 -0.0034842233 -0.0130699575 -0.039743897 -0.099568106 -0.049116075
-0.02185532 0.057469405 0.056978643 -0.0793207 0.11123625 0.08119264 0.01023848 0.025188407
0.05871134 -0.075904265 -0.09725343 0.075432345 0.047267202 -0.017679842 -0.029164504 0.03760287
0.018360421 -0.08299318 -0.08559709 -0.06904858 -0.092832536 -0.05550798 0.0711792 -0.028368875
-0.011568271 -0.089153044 -0.09530861 -0.0011989366 -0.10287338 -0.105155304 0.038787458 -0.13585727
0.08243324 -0.0823459 -0.077690065 -0.03717846 -0.09970655 -0.013209304 -0.069142744 0.051856946
-0.04128364 0.16184501 0.008556389 0.12862353 0.10662034 0.1921525 0.02637878 -0.12246868
-0.016398218 0.09171222 0.034066714 0.06922274 0.014637983 0.087611526 0.11587217 0.034928773
0.002538354 0.037892997 -0.026070373 0.039521642 0.10960435 0.12662296 -0.04439944 -0.034329154
-0.0052431487 -0.016783677 -0.04247846 -0.10844444 0.008334797 -0.10118124 -0.09416693 -0.027444482
-0.023597198 0.059466932 -0.082032405 0.052773867 -0.030705718 -0.11733348 -0.13786714 -0.08451518
-0.016804552 0.016475579 0.009017234 -0.10494447 0.041910194 -0.11904424 -0.076937266 0.056400433
0.049426973 0.04472363 -0.036052804 -0.0060213287 -0.0077820662 -0.0368297 0.1680838 0.087381005
0.006053177 0.017663412 0.05747435 -0.019652152 0.070821434 -0.04785099 0.028217062 0.13234943
0.14385451 -0.018669687 0.04968675 0.08821579 -0.03884593 0.04327155 0.12923215 -0.035041768
-0.049448203 -0.10059664 0.010585614 -0.022895962 0.033675794 -0.054548074 0.10522971 0.09549618
-0.056477103 0.0022511713 0.06634767 -0.068918884 0.06851719 -0.07325487 -0.030470066 -0.067564614
0.0036327245 -0.13669275 0.0039054453 -0.05095952 0.009783482 0.0144040445 -0.023444455 0.03200468
0.050733708

bias f4 [3]
00000000: 5211 27bc be85 643e 9a56 a63d
-0.010197001 0.22316644 0.08121987

weight f4 [3]
00000000: 45f1 743f 38f9 6f3f 87f3 783f
0.9568065 0.9373965 0.97246593

bias f4 [3]
00000000: 0be1 37be d20c 3fbe fb18 63be
-0.17956941 -0.18657234 -0.22177498

running_mean f4 [3]
00000000: db6f f23c 716c a03e 7b2f 0fbe
0.029594352 0.31332734 -0.13982956

running_var f4 [3]
00000000: 7500 973c b27b 803d 9a6b 593d
0.018432835 0.06273593 0.053081132

weight f4 [3, 3, 3, 3]
00000000: 52f9 1a3e 329c 08be 00ae 033d dedf ab3d
00000010: 1d93 f7bd 22e7 f23d 7d1e a0bd b519 0b3c
00000020: 4edd 193e 153b d4bd 2090 cebb aeb4 bebd
00000030: 6e8f 003e 053f 013e 4e7f e2bd c256 e9bc
00000040: b81a 2c3e 3116 da3d e06f 19bd 0d01 ac3d
00000050: c5ce cebd 4134 55be db05 3cbd 0473 c33c
00000060: 38f2 3b3d 9afd 4cbd 9874 f8bd a1c3 b43c
00000070: 32b8 873d 8617 c5bd 5a78 27bd 600a 1abe
00000080: a0fe 803d c6c1 dc3d 5829 f93c b8f8 443d
00000090: 13b9 8fbd c259 f7bd 940a bcbd ca26 123c
000000a0: ca92 213e 5110 213e c899 943d 2183 9b3c
000000b0: 273a febd 7a8c 003d 2c57 f83c 1c67 00be
000000c0: 961e 3d3e 6a71 f4bd 6c61 053e 501e 45be
000000d0: 806c 59bc 17b2 86bd 33eb 353d b3db 6abd
000000e0: 0cee 043e 4427 8ebd 36c4 203e e272 29be
000000f0: 47e1 e2bd b1a7 243e 95a7 603d 7486 cd3d
00000100: aa8c e1bb f4a5 a7bd fa91 06bc 652a 003d
00000110: 1040 c23d 08fb 443e 9469 adbd 09a8 9bbd
00000120: 0f50 4e3c 7e99 193e 603b 16be 5d41 02bd
00000130: 6f6b 083e b9d9 dabd 7953 fc3d 8c92 c3bd
00000140: 3593 393e
0.1513417 -0.13340834 0.03214836 0.08392309 -0.120886065 0.11860491 -0.07818315 0.008490016
0.15025827 -0.103628315 -0.006303802 -0.09311806 0.12554714 0.12621696 -0.11059438 -0.028483752
0.16807067 0.10648764 -0.037460208 0.08398638 -0.10098032 -0.20820715 -0.04590402 0.023858555
0.045885295 -0.05004654 -0.121316135 0.02206594 0.06626929 -0.09623627 -0.04088626 -0.1504302
0.06298566 0.10779147 0.030415222 0.04808876 -0.07017722 -0.12077667 -0.09181705 0.008920381
0.15778652 0.1572888 0.07255894 0.018983426 -0.124134354 0.03138397 0.030315004 -0.12539333
0.18468699 -0.119356945 0.13025445 -0.19249845 -0.013270497 -0.06576937 0.044413757 -0.057338428
0.12981433 -0.06941083 0.15699849 -0.1654773 -0.110781245 0.16079594 0.05484732 0.100354105
-0.0068832235 -0.0818595 -0.008213514 0.03129043 0.09484875 0.19236386 -0.08467403 -0.076004095
0.01259233 0.14999959 -0.14671087 -0.031800617 0.13322233 -0.106860586 0.12320609 -0.09549436
0.18122561

bias f4 [3]
00000000: 7f68 173e 2f15 7e3d 16ff 9b3d
0.14785956 0.06203192 0.07617013
