his_POCs/models_o1/RP500_RNN_CNN_deep.pth (torch, 586382 bytes, 96 tensors)

hidden f4 [1, 3, 200, 200]
000000 4c ba ff 40 38 0a 35 41 18 4a 4a 41 57 31 40 41
       7.9914913 11.314995 12.643089 12.012046
000010 88 2f 4b 41 d1 27 4c 41 a1 a3 3e 41 32 98 31 41
       12.699104 12.759721 11.914948 11.099657
000020 a9 6c 20 41 c8 af 0e 41 d8 9c f6 40 1d d5 d0 40
       10.026528 8.917915 7.706646 6.526015
000030 7a b2 ad 40 77 b4 8d 40 c0 d7 63 40 11 8e 33 40
       5.4280367 4.4282794 3.5600433 2.805546
000040 03 4e 0a 40 36 be d0 3f 26 16 9a 3f 51 05 59 3f
       2.1610115 1.6308048 1.2038009 0.8477374
000050 79 37 0d 3f a4 5e af 3e 1a 20 59 3e 58 dc e6 3d
       0.5516277 0.34251893 0.21203652 0.11272496
000060 64 04 2e 3d 00 00 00 00 00 00 00 00 00 00 00 00
       0.042484656 0.0 0.0 0.0
000070 00 00 00 00 00 00 00 00 00 00 00 00 00 00 00 00
       0.0 0.0 0.0 0.0
000080 00 00 00 00 00 00 00 00 00 00 00 00 00 00 00 00
       0.0 0.0 0.0 0.0
000090 00 00 00 00 00 00 00 00 00 00 00 00 00 00 00 00
       0.0 0.0 0.0 0.0
0000a0 00 00 00 00 00 00 00 00 00 00 00 00 00 00 00 00
       0.0 0.0 0.0 0.0
0000b0 00 00 00 00 00 00 00 00 00 00 00 00 00 00 00 00
       0.0 0.0 0.0 0.0
0000c0 00 00 00 00 00 00 00 00 00 00 00 00 00 00 00 00
       0.0 0.0 0.0 0.0
0000d0 00 00 00 00 00 00 00 00 00 00 00 00 00 00 00 00
       0.0 0.0 0.0 0.0
0000e0 00 00 00 00 00 00 00 00 00 00 00 00 00 00 00 00
       0.0 0.0 0.0 0.0
0000f0 00 00 00 00 00 00 00 00 00 00 00 00 00 00 00 00
       0.0 0.0 0.0 0.0
000100 00 00 00 00 00 00 00 00 00 00 00 00 00 00 00 00
       0.0 0.0 0.0 0.0
000110 00 00 00 00 00 00 00 00 00 00 00 00 00 00 00 00
       0.0 0.0 0.0 0.0
000120 00 00 00 00 00 00 00 00 00 00 00 00 00 00 00 00
       0.0 0.0 0.0 0.0
000130 00 00 00 00 00 00 00 00 00 00 00 00 00 00 00 00
       0.0 0.0 0.0 0.0
000140 00 00 00 00 00 00 00 00 00 00 00 00 00 00 00 00
       0.0 0.0 0.0 0.0
000150 00 00 00 00 00 00 00 00 00 00 00 00 00 00 00 00
       0.0 0.0 0.0 0.0
000160 00 00 00 00 00 00 00 00 00 00 00 00 00 00 00 00
       0.0 0.0 0.0 0.0
000170 00 00 00 00 00 00 00 00 00 00 00 00 00 00 00 00
       0.0 0.0 0.0 0.0
000180 00 00 00 00 00 00 00 00 00 00 00 00 00 00 00 00
       0.0 0.0 0.0 0.0
000190 00 00 00 00 00 00 00 00 00 00 00 00 00 00 00 00
       0.0 0.0 0.0 0.0
0001a0 00 00 00 00 00 00 00 00 00 00 00 00 00 00 00 00
       0.0 0.0 0.0 0.0
0001b0 00 00 00 00 00 00 00 00 00 00 00 00 00 00 00 00
       0.0 0.0 0.0 0.0
0001c0 00 00 00 00 00 00 00 00 00 00 00 00 00 00 00 00
       0.0 0.0 0.0 0.0
0001d0 00 00 00 00 00 00 00 00 00 00 00 00 00 00 00 00
       0.0 0.0 0.0 0.0
0001e0 00 00 00 00 00 00 00 00 00 00 00 00 00 00 00 00
       0.0 0.0 0.0 0.0
0001f0 00 00 00 00 00 00 00 00 00 00 00 00 00 00 00 00
       0.0 0.0 0.0 0.0
000200 00 00 00 00 00 00 00 00 00 00 00 00 00 00 00 00
       0.0 0.0 0.0 0.0
000210 00 00 00 00 00 00 00 00 00 00 00 00 00 00 00 00
       0.0 0.0 0.0 0.0
000220 00 00 00 00 00 00 00 00 00 00 00 00 00 00 00 00
       0.0 0.0 0.0 0.0
000230 00 00 00 00 00 00 00 00 00 00 00 00 00 00 00 00
       0.0 0.0 0.0 0.0
000240 00 00 00 00 00 00 00 00 00 00 00 00 00 00 00 00
       0.0 0.0 0.0 0.0
000250 00 00 00 00 00 00 00 00 00 00 00 00 00 00 00 00
       0.0 0.0 0.0 0.0
000260 00 00 00 00 00 00 00 00 00 00 00 00 00 00 00 00
       0.0 0.0 0.0 0.0
000270 00 00 00 00 00 00 00 00 00 00 00 00 00 00 00 00
       0.0 0.0 0.0 0.0
000280 00 00 00 00 00 00 00 00 00 00 00 00 00 00 00 00
       0.0 0.0 0.0 0.0
000290 00 00 00 00 00 00 00 00 00 00 00 00 00 00 00 00
       0.0 0.0 0.0 0.0
0002a0 00 00 00 00 00 00 00 00 00 00 00 00 00 00 00 00
       0.0 0.0 0.0 0.0
0002b0 00 00 00 00 00 00 00 00 00 00 00 00 00 00 00 00
       0.0 0.0 0.0 0.0
0002c0 00 00 00 00 00 00 00 00 00 00 00 00 00 00 00 00
       0.0 0.0 0.0 0.0
0002d0 00 00 00 00 00 00 00 00 00 00 00 00 00 00 00 00
       0.0 0.0 0.0 0.0
0002e0 00 00 00 00 00 00 00 00 00 00 00 00 00 00 00 00
       0.0 0.0 0.0 0.0
0002f0 00 00 00 00 00 00 00 00 00 00 00 00 00 00 00 00
       0.0 0.0 0.0 0.0
000300 00 00 00 00 00 00 00 00 00 00 00 00 00 00 00 00
       0.0 0.0 0.0 0.0
000310 00 00 00 00 00 00 00 00 00 00 00 00 00 00 00 00
       0.0 0.0 0.0 0.0
000320 00 00 00 00 00 00 00 00 00 00 00 00 00 00 00 00
       0.0 0.0 0.0 0.0
000330 00 00 00 00 00 00 00 00 00 00 00 00 00 00 00 00
       0.0 0.0 0.0 0.0
000340 00 00 00 00 00 00 00 00 00 00 00 00 00 00 00 00
       0.0 0.0 0.0 0.0
000350 00 00 00 00 00 00 00 00 00 00 00 00 00 00 00 00
       0.0 0.0 0.0 0.0
000360 00 00 00 00 00 00 00 00 00 00 00 00 00 00 00 00
       0.0 0.0 0.0 0.0
000370 00 00 00 00 00 00 00 00 00 00 00 00 00 00 00 00
       0.0 0.0 0.0 0.0
000380 00 00 00 00 00 00 00 00 00 00 00 00 00 00 00 00
       0.0 0.0 0.0 0.0
000390 00 00 00 00 00 00 00 00 00 00 00 00 00 00 00 00
       0.0 0.0 0.0 0.0
0003a0 00 00 00 00 00 00 00 00 00 00 00 00 00 00 00 00
       0.0 0.0 0.0 0.0
0003b0 00 00 00 00 00 00 00 00 00 00 00 00 00 00 00 00
       0.0 0.0 0.0 0.0
0003c0 00 00 00 00 00 00 00 00 00 00 00 00 00 00 00 00
       0.0 0.0 0.0 0.0
0003d0 00 00 00 00 00 00 00 00 00 00 00 00 00 00 00 00
       0.0 0.0 0.0 0.0
0003e0 00 00 00 00 00 00 00 00 00 00 00 00 00 00 00 00
       0.0 0.0 0.0 0.0
0003f0 00 00 00 00 00 00 00 00 00 00 00 00 00 00 00 00
       0.0 0.0 0.0 0.0

weight f4 [3, 3, 5, 5]
000000 a4 b2 b0 3d 73 d9 c5 3d 62 75 e3 3d 4b e5 4f bd
       0.08627823 0.09660616 0.11106373 -0.05075578
000010 88 eb e3 3d 8d 60 09 3c df 89 95 bd c5 74 c6 3a
       0.111289084 0.008384836 -0.073016874 0.0015141001
000020 09 08 84 bd 26 f1 c0 3d cd 70 6c bd b3 7f 6f 3d
       -0.06446845 0.094209954 -0.057724763 0.058471393
000030 85 ca 36 3c d6 d0 7f bc 8b 9b 10 bd 3d 71 bd 3d
       0.011156683 -0.015613755 -0.035304587 0.09250114
000040 40 89 6b bd 53 ea de bc 5d c3 d1 bc e9 f4 9c bd
       -0.05750394 -0.027211344 -0.025605852 -0.076639004
000050 d5 d0 41 3d 56 fb 9e 3d f3 bc 59 bd 9c 34 9e 3d
       0.0473183 0.07762782 -0.05315871 0.07724878
000060 a8 88 83 bd 95 b1 9b 3d 68 47 cd 3d f1 40 a4 bd
       -0.064225495 0.076022305 0.10023385 -0.08020199
000070 f1 1d a2 bc c6 3f 80 3d 7e 4c 97 bd 95 c8 f6 3c
       -0.019789668 0.06262164 -0.073876366 0.030124942
000080 9c c4 f4 bb fe 71 b0 bc 6c 90 5f bc fe 33 86 bd
       -0.0074697267 -0.02153873 -0.013645273 -0.065528855
000090 4b 48 e5 bc e4 c4 c0 bd 3d f4 9b bd 9a 93 2f 3d
       -0.027988574 -0.09412554 -0.07614944 0.042865373
0000a0 d2 62 a3 bc b2 f9 d4 3b d6 65 d3 3d 49 72 5d 3d
       -0.019944582 0.0064994926 0.10322158 0.05406407
0000b0 51 55 4f 3d a2 e3 55 3d c5 9e da 3d 70 88 4e bd
       0.050618473 0.05221904 0.10674814 -0.050423086
0000c0 81 2c 83 3d 51 1d 2a bc 28 9d d9 3d 20 03 0a 3c
       0.06404973 -0.010382966 0.10625678 0.008423597
0000d0 13 40 3f 3c 01 bb e6 3d 2b 1b e3 3d 56 22 9c bd
       0.011672991 0.11266137 0.11089166 -0.076237366
0000e0 f4 98 a9 3d 67 99 6d 3b 04 7c 04 be a5 33 4e bd
       0.082811266 0.0036254765 -0.12937933 -0.05034222
0000f0 d0 ba 60 3d 35 61 b6 bc 23 b2 0c bd ca 24 82 bb
       0.05486566 -0.022263149 -0.034349572 -0.0039716708
000100 0d d3 bb bd e9 55 66 3d d5 99 6a bd b3 df f2 bd
       -0.09171114 0.056234274 -0.057275612 -0.118590735
000110 c9 05 82 3d 80 bb b9 bd 91 5c d4 bd e6 83 9f ba
       0.0634876 -0.09068966 -0.10369218 -0.0012170046
000120 57 83 a5 bd f7 dd 0c bd 85 3b e9 bd c6 6f b7 3d
       -0.08081692 -0.03439137 -0.113883056 0.08956866
000130 27 04 4f 3d a4 1e 9e 3d c7 f5 c7 bb a3 8c 8b 3d
       0.05054107 0.07720688 -0.006102297 0.06813934
000140 b0 5b b3 bd 9e 84 1a 3c 62 94 59 bd 18 71 e7 3b
       -0.087577224 0.009431032 -0.053120025 0.0070630424
000150 31 48 e4 3d fb 88 de 3d b2 d7 7d bd fe 9e 9b 3d
       0.11146582 0.10865971 -0.06197328 0.07598685
000160 7f 06 6e bc 53 ba 35 bd 88 7a 74 ba c3 6c ed bd
       -0.014527916 -0.044367146 -0.000932612 -0.1159301
000170 1d 3d bf bd ac a0 62 bd ce bb be 3d ea 6c 8a bd
       -0.09337828 -0.05532901 0.09313165 -0.06759055
000180 43 6f 87 3d 09 85 79 bd 87 61 dc bd 94 c1 b6 3c
       0.06613018 -0.060917888 -0.10760789 0.022309102
000190 a3 37 13 bd c2 b6 92 bd 26 ef f0 3c 03 af ee 3b
       -0.03594173 -0.071637645 0.02941091 0.0072840466
0001a0 b7 b5 9e bd f4 ac 91 bd c5 8d 9d 3d aa 6d 85 bc
       -0.07749503 -0.07113066 0.07693056 -0.016287643
0001b0 5f e2 95 bc 8c f4 a2 bd 4b 3c c5 bd 60 6b 23 bd
       -0.018296419 -0.079568 -0.096306406 -0.039897323
0001c0 78 18 08 3b 29 3f af 3d 79 30 e5 bc af 6f 9c bd
       0.0020766538 0.08556969 -0.027977215 -0.076384895
0001d0 10 05 4a 3d c6 ab 70 3d b4 a1 cb bc f9 3d dc bd
       0.049321234 0.058757566 -0.02485738 -0.10754008
0001e0 32 67 95 bb a4 4f 9c bc 39 11 aa bd 49 97 d8 3c
       -0.004559421 -0.019080944 -0.08304066 0.026439326
0001f0 17 5d fd 3a 3e a9 7a 3d 4d 0a a4 3c 63 26 20 3d
       0.0019330111 0.06119656 0.020024443 0.03909911
000200 d7 32 a9 bd 1c 12 16 3c 83 61 93 bd 51 d1 2f bd
       -0.0826165 0.009159591 -0.07196333 -0.04292423
000210 c9 78 de 3d 45 83 fd 3c dc 38 11 3d b3 fc a5 3c
       0.10862882 0.030946383 0.035454616 0.020262098
000220 eb 79 92 3d cd 3d c3 bd 25 e8 80 bd 31 22 90 bd
       0.0715216 -0.09533272 -0.06294278 -0.070377715
000230 2e c6 14 bd 5d b7 88 bd 78 ce ad bd 74 bd 1d bd
       -0.03632181 -0.06675599 -0.084866464 -0.038510755
000240 56 80 91 bb 7b fc b7 3d 54 4c 45 bd 81 50 82 bd
       -0.0044403477 0.08983704 -0.048168495 -0.06363011
000250 1a 25 41 3c ab ad d5 bd 44 da e6 bd f7 59 c8 bd
       0.011788631 -0.10433515 -0.112720996 -0.097827844
000260 78 eb 66 bd 51 4f a1 bd 3c 35 cb bc 59 62 a8 bd
       -0.056376904 -0.078764565 -0.024805658 -0.08221883
000270 37 dc 12 be 20 05 32 3d f6 39 03 be 66 9d 93 bd
       -0.14341818 0.04346192 -0.12815079 -0.07207756
000280 f2 01 05 be b2 60 36 3d 2f d5 9a bc ab 67 b5 bd
       -0.12989023 0.04452581 -0.018900482 -0.08857664
000290 24 76 35 3a bc fa 0d be de 1d b8 bd a0 26 28 be
       0.00069222064 -0.13865179 -0.08990072 -0.16420984
0002a0 35 dc 1d bd 77 af 41 3b 2c 71 80 3d 2d ae 85 bd
       -0.038540084 0.0029554048 0.06271586 -0.06527362
0002b0 7f 58 f5 3a 8e c9 13 be 47 37 d0 bd e0 94 e6 bb
       0.001871839 -0.14432356 -0.10166793 -0.0070367903
0002c0 78 99 f1 bc 68 9e 57 3d 18 32 c9 3b 99 5b 1f bd
       -0.029492125 0.052641302 0.006140005 -0.038905714
0002d0 6a 6a a3 3d 41 d4 a8 3d af b3 96 bd 56 99 ce bc
       0.07979281 0.08243609 -0.07358491 -0.0252196
0002e0 1d fb 43 bb 87 35 ca 3d 99 c6 f4 3d af da 25 bd
       -0.0029904314 0.09873491 0.11951942 -0.040491756
0002f0 ef a4 ca bd a2 24 b4 bb c5 b6 97 3d 55 2d 10 bd
       -0.0989474 -0.005497531 0.074079074 -0.035199482
000300 62 76 7d 3d 2e 1b 61 3d 95 07 c8 bd 72 33 a4 3c
       0.061880477 0.05495756 -0.09767071 0.020044062
000310 a4 18 a8 3d 45 18 9a 3d d9 e4 15 3d 38 03 e9 3c
       0.08207825 0.0752416 0.0365952 0.028443918
000320 ee 89 dd bd 25 81 cf 3b a4 71 d5 bd a6 0a c2 bd
       -0.108173236 0.006332534 -0.10422066 -0.09474687
000330 a5 c1 67 bd 6a 80 cb bd 6d 27 12 bd 91 5d 88 bd
       -0.05658116 -0.099366024 -0.03568213 -0.066584714
000340 ab c5 27 be b2 00 05 be fa b6 12 be 86 6d 28 be
       -0.16383998 -0.12988546 -0.14327613 -0.1644803
000350 73 b1 5b 3c f5 9d 55 bc 80 89 aa 3c 61 b6 07 3d
       0.013409006 -0.013038148 0.020817518 0.033132914
000360 25 cc 07 bd 8d fc d9 3c 26 34 e8 bd 8c 03 bc bd
       -0.03315367 0.026609683 -0.113380715 -0.09180364
000370 81 b0 1d be f6 f2 f1 bd 15 b7 4e bd 57 87 b9 bd
       -0.15399362 -0.11813919 -0.05046757 -0.09059017
000380 b8 2d 98 3d
       0.07430595

bias f4 [3]
000000 25 54 6b bd 69 ee 5c bb b1 c8 c0 bc
       -0.057453293 -0.003371144 -0.023533197

weight f4 [3]
000000 0b a8 87 3f 83 a6 7c 3f c4 52 70 3f
       1.0598158 0.98691577 0.9387629

bias f4 [3]
000000 02 4b 40 bd 7e 16 59 bd 92 55 42 3d
       -0.046946533 -0.052999966 0.047444887

running_mean f4 [3]
000000 23 81 b1 bb cb c5 7f be 11 14 52 bd
       -0.0054170056 -0.24977796 -0.051288668

running_var f4 [3]
000000 07 74 22 3e 05 b3 28 3e ac 8b a9 3f
       0.15864573 0.1647454 1.324575

weight f4 [6, 3, 5, 5]
000000 63 71 0e 3d d1 7d fa bd a6 1c a1 3d 40 20 8f bd
       0.034776103 -0.12231029 0.078667924 -0.06988573
000010 6f fd 2e be 81 1f b9 3b a4 41 8a bd 48 c7 00 be
       -0.17088865 0.0056495075 -0.06750801 -0.1257602
000020 27 cb 1a 3d 78 81 43 3d b0 12 02 3e a7 09 3d bc
       0.037791397 0.047730893 0.12702441 -0.011537946
000030 78 50 ad 3c e0 4a 6d 3c 6d e9 8d bd cb f0 93 3c
       0.021156535 0.014483184 -0.06929288 0.018059155
000040 3f a2 2c be fd e2 9a bd 15 da b4 bd 73 06 c9 bd
       -0.16858767 -0.07562826 -0.08830658 -0.09815683
000050 e7 9b 7e bd 2f d5 38 bd 5b f7 a8 3d 7f 39 f8 bc
       -0.0621604 -0.045125183 0.08250304 -0.030300854
000060 8f 6e de 3d c3 c2 01 3e 38 51 35 3c 70 1d 21 bd
       0.10860931 0.12671952 0.011066727 -0.039334714
000070 d7 eb 35 bd 04 34 61 bd 2c 92 8d bd 36 f1 e3 3d
       -0.044414368 -0.054981247 -0.06912646 0.11129992
000080 1b 36 c1 3d 30 c3 86 3d 06 a0 a5 3b f6 fb 1c bc
       0.09434148 0.06580198 0.0050544767 -0.009581557
000090 2f 4f f1 3d 85 f2 94 3d bc 54 13 3c 46 26 95 3c
       0.11782681 0.072728194 0.00899237 0.018206727
0000a0 d5 7a ca bd ab c8 84 bd 84 e4 e4 bd 5f fd 42 3d
       -0.098867096 -0.06483587 -0.111763984 0.047604915
0000b0 81 7a 70 bd 84 78 46 bd 8e 1d 02 bd 96 79 23 3c
       -0.05871058 -0.048454776 -0.031766467 0.009977719
0000c0 cf 2d 48 bd b2 d4 91 3d 05 43 90 bd f4 fb 55 3d
       -0.04887181 0.071206465 -0.07044033 0.052242234
0000d0 97 c3 98 3d ed 39 c0 bd 8c 98 de 3c 49 ab e5 3d
       0.07459181 -0.093860485 0.02717235 0.11214311
0000e0 05 eb 97 3d 4b 4c 1b bd a1 d4 43 bd cc 93 ce 3c
       0.07417873 -0.037914556 -0.0478102 0.02521696
0000f0 2e 6f af bd 32 c8 34 3d e0 34 6e bd a8 40 6e 3d
       -0.08566128 0.044136234 -0.058155894 0.05816713
000100 7a 87 5a bc af a8 2f 3d ea 77 2a bc 88 98 a7 bd
       -0.013337964 0.04288548 -0.010404566 -0.0818339
000110 c1 3a a4 bd 25 fa 4b bd ec 51 57 3d 0a e8 f1 3d
       -0.08019019 -0.049799103 0.05256836 0.11811836
000120 21 96 92 3d 7b 08 82 3c 50 5c 62 bd ab 34 ec 3d
       0.07157541 0.015873184 -0.055263817 0.11533483
000130 c1 51 9d 3d fa fc 54 3d dd e0 a8 bd 94 f4 f9 bb
       0.07681609 0.05199907 -0.08246014 -0.007628033
000140 c3 e2 98 3d 52 6f 11 3d dd 0b 02 be 66 37 2a 3b
       0.07465126 0.035506554 -0.12699838 0.0025972961
000150 64 b0 48 3c e7 e3 7c bd df ef 39 bc c1 d6 57 3d
       0.012249086 -0.061740782 -0.011348694 0.05269504
000160 cb ed 98 3d c6 ca 2d bd bc a6 e4 bd 00 18 55 3d
       0.074672304 -0.042429708 -0.111646146 0.05202484
000170 0e ea 8a bd 93 fe 93 bd cd b3 03 3d 94 2f b0 bc
       -0.06782924 -0.072262906 0.032153893 -0.021507062
000180 75 0d b7 3d 5c e6 29 bd 7d d8 10 3d 1d 40 69 3d
       0.089381136 -0.041479453 0.03536271 0.05694591
000190 70 de e1 3a e9 1f ae 3d 59 45 7d 3d fe 7a 25 3d
       0.0017232429 0.0850218 0.061833713 0.040400498
0001a0 68 f9 d2 3d 5a 31 44 bb 8b d0 9b bd de a8 6a 3b
       0.10301477 -0.0029936642 -0.07608136 0.003580622
0001b0 34 f9 ce b9 e7 ad fa bd 7d ef f2 3d d6 84 2b bb
       -0.00039477053 -0.122402005 0.11862085 -0.0026171706
0001c0 bd e4 2d bb b6 68 a3 bd 09 0a 79 3c a4 08 fe bc
       -0.0026534044 -0.079789564 0.0152001465 -0.03100998
0001d0 68 d8 35 bd 45 af d2 bd 73 e9 70 bd 35 6c c3 bd
       -0.044395834 -0.10287336 -0.058816385 -0.09542123
0001e0 f4 8e 1f 3d 05 af 57 3d c2 3c 0f be a1 98 9c 3d
       0.03895469 0.052657146 -0.13988021 0.07646299
0001f0 d0 cc da 3d 4a 73 da 3d 86 a4 c1 3d e6 4e 40 3d
       0.10683596 0.10666521 0.094552085 0.046950243
000200 40 03 da bd 89 b2 e9 bc a4 87 a9 3d e7 99 01 bd
       -0.10645151 -0.028527515 0.082778245 -0.031640913
000210 f4 d3 8c 3d 69 a0 42 3c be 09 bb bd dd ca 86 bd
       0.06876364 0.011879065 -0.091327175 -0.06581662
000220 1a ff bd bc 6d 82 bf 3c d8 a9 ea bd 90 49 c3 bc
       -0.023192931 0.023377622 -0.114581764 -0.023838788
000230 a4 8b c2 3d 1c 8e 9a 3d 03 08 e6 bd 5d e0 52 3b
       0.094992906 0.075466365 -0.11231997 0.0032177188
000240 fd c2 7e bd 04 9f 1d bd 48 89 07 3e 8b ac db 3c
       -0.062197674 -0.038481727 0.13235962 0.026815673
000250 80 88 87 bd bc 69 fd 3d 5c f8 9a bb f8 9d d8 3d
       -0.06617832 0.12373683 -0.004729314 0.10577005
000260 32 6b cf bb c7 4c e0 3c 76 3b 05 3e f6 a3 c6 bd
       -0.0063299173 0.02738036 0.13010964 -0.09699242
000270 ae 4b 67 bd 92 69 ef bc 74 45 51 bd e7 0c 01 be
       -0.05646866 -0.029225145 -0.051091626 -0.12602578
000280 fc fa b1 bd b9 10 0b bc b3 76 8f 3d fa 3d 7d 3d
       -0.086904496 -0.008487874 0.07005062 0.061826684
000290 8f 4b b2 bd 05 71 43 3d 31 9b c2 3d 01 bf af 3b
       -0.08705818 0.047715206 0.09502257 0.0053633456
0002a0 42 82 37 3c fc a6 aa 3d ba 45 e1 39 5a 06 ac bc
       0.0112004895 0.08332631 0.00042967295 -0.020999122
0002b0 35 7e cb bd 34 73 cc bd fe 80 0c be 51 01 84 bb
       -0.099361815 -0.09982911 -0.13721082 -0.0040284772
0002c0 f6 6b 8a bc 43 12 cf bd da 2a 67 3d c6 74 b2 3d
       -0.016897183 -0.10110905 0.05643735 0.08713679
0002d0 65 42 fc 3c 39 fb d1 bd 78 17 89 3c 9e 13 ca 3d
       0.030793378 -0.10252995 0.016734824 0.09867023
0002e0 1d 53 1d bd 61 2d 1b 3d d4 da a5 bd 0e 5f 92 bd
       -0.03840934 0.037885074 -0.08098379 -0.071470365
0002f0 ba eb bc bd 08 67 ac 3d 38 8d 2b 3d c3 2a 96 3d
       -0.09224649 0.08418089 0.041882724 0.07332375
000300 9e 80 b8 3d d6 de b2 bd 69 2b ec 3d b6 ce 9a 3d
       0.09008907 -0.08733909 0.11531717 0.07558958
000310 a0 ad e9 3c 73 c0 2d 3d 45 4c 6d bd 3e 5d 2e 3d
       0.028525174 0.042419862 -0.057934064 0.04256939
000320 28 40 e6 3c 25 7e 9b 3d 61 85 46 bd da 3f 38 3d
       0.028106764 0.075924195 -0.048467044 0.04498277
000330 1a be 3e bb 3b 38 8c 3d 4d 30 5d bd b1 02 13 3c
       -0.0029105009 0.068466626 -0.05400114 0.00897281
000340 da d9 20 3c 9c 4e 3c 3c 30 b4 b2 3d d7 38 9f bd
       0.009817565 0.011493351 0.08725774 -0.07774513
000350 bf 93 ea 3d eb b6 62 3d bf 5a bb 3d 34 24 23 bc
       0.114539616 0.055350225 0.09148168 -0.009957362
000360 f9 0f 28 3d 50 91 56 bc 69 ab d9 bd 77 77 c0 bd
       0.041030858 -0.013096169 -0.10628397 -0.09397786
000370 dc 63 6f bd ed 8f e5 3d 49 8e 00 bd ab c8 00 bd
       -0.058444843 0.11209092 -0.031385694 -0.031441372
000380 c9 60 45 bd 31 7d aa bd cf 7a 89 3d 00 5d 75 bd
       -0.048188005 -0.083246596 0.06712877 -0.059903145
000390 d2 b9 d3 bc 44 6e 56 3b a4 77 88 3c 1f 5f ab 3d
       -0.025845442 0.0032719532 0.016658612 0.08367752
0003a0 2e af 13 bc 8f 9d 65 3c 9f 20 74 3d 50 26 db bd
       -0.009013934 0.014014616 0.059601422 -0.10700667
0003b0 81 53 b6 3d 53 0d e6 bd cf 06 9a bd 64 e3 ef bc
       0.08902646 -0.1123301 -0.0752083 -0.029283233
0003c0 cd 4d 67 bd 1f 22 03 be 6f e4 54 3c d7 0b b9 3d
       -0.05647068 -0.12805985 0.012993916 0.090354614
0003d0 82 59 b0 bd 78 c8 ba 3d 6c 38 91 3d 42 ef ab bd
       -0.08610822 0.09120268 0.0709084 -0.08395244
0003e0 0b b3 c5 3c e3 93 ca 3c 79 b8 9e bd 9c a6 c8 3d
       0.024133226 0.024728721 -0.07750029 0.09797403
0003f0 72 0e c6 3d 7d d8 97 3d a4 03 c5 bd c0 47 05 3e
       0.09670724 0.07414339 -0.09619835 0.13015652

bias f4 [6]
000000 fa 3c 96 3d 05 15 aa 3d 2a 7a 98 3d 9e 38 59 3c
       0.07335849 0.083047904 0.07445176 0.0132581275
000010 b7 61 8e 3d 28 3d 08 3d
       0.069522314 0.03326145

weight f4 [6]
000000 4f 23 7c 3f 75 db 7c 3f 2e 53 82 3f 56 06 81 3f
       0.98491377 0.98772365 1.0181634 1.0080059
000010 26 2b 81 3f fe f8 7e 3f
       1.0091293 0.9959868

bias f4 [6]
000000 ad 39 0d bd b3 6a 16 bc 58 c6 1d bb f1 f1 9b bc
       -0.034478832 -0.0091807125 -0.002407452 -0.019036265
000010 85 84 0b bd ee f3 5d 3d
       -0.034061927 0.054187708

running_mean f4 [6]
000000 1d 51 8b 3c e1 ef d5 3d 8d 84 ef 3d f3 80 e0 3c
       0.017006451 0.10446144 0.11695204 0.027405238
000010 cc 14 09 3e e1 7c 31 be
       0.1338684 -0.17332794

running_var f4 [6]
000000 43 80 63 3e 9b cd 23 3e 19 50 20 3e 14 1e 89 3d
       0.22216897 0.15996401 0.15655555 0.0669519
000010 7c 70 bb 3e 59 ad 0d 3e
       0.36609256 0.13835658

weight f4 [12, 6, 5, 5]
000000 9f 25 3f 3c b8 03 da 3d ad 3b 0e 3e c7 1e c6 3c
       0.011666684 0.106452405 0.13889952 0.024184598
000010 ed b7 8a 3d c3 75 62 3d 7c c9 c9 3d 61 5b 60 bc
       0.06773362 0.055288088 0.09852883 -0.013693661
000020 55 a5 9e 3c 82 2c 5f 3d 18 6c e2 3c 30 8b ff 3c
       0.019365946 0.054485805 0.027639434 0.0311943
000030 b2 b7 cc 3d 73 6a 29 bc 1e bb 96 bc ca 73 b1 3d
       0.099959746 -0.010340321 -0.018399771 0.08664663
000040 d0 5c 69 3d 42 50 53 bd 89 52 9a 3d 72 2d e8 bc
       0.05697328 -0.05159021 0.075352736 -0.028341983
000050 1d 02 07 bd 64 85 85 3c a3 ac 7a 3d c5 2d 39 bd
       -0.032961 0.016298957 0.061199795 -0.045209665
000060 ac 35 f2 3c c3 19 a3 3c 46 09 cd bb fb 86 d6 bc
       0.029566608 0.019909745 -0.006257209 -0.02618741
000070 08 ff 4f bd 11 7e 0e bd d9 3c 24 bd 92 e5 aa bc
       -0.050780326 -0.034788195 -0.04009709 -0.02086142
000080 3d 57 fb bc 8b 4d 0c 3c 89 89 51 3d d6 2e 40 3c
       -0.030681247 0.00856341 0.051156554 0.011729917
000090 d4 02 94 bd 82 ee 0d bc 35 b1 22 bd ec 6c 01 bd
       -0.07227102 -0.008662822 -0.03971978 -0.031598017
0000a0 af 34 06 bd 39 ee 47 3d dc 99 1b bd 46 dd a1 3c
       -0.032765087 0.04881117 -0.03798853 0.019758832
0000b0 c5 e0 a3 3b 44 81 b5 3d 9f 10 25 3d 03 46 f7 bb
       0.00500116 0.08862546 0.040299054 -0.007546188
0000c0 54 34 23 bd 72 73 2f 3d 1a e9 38 3d 8f 57 39 3d
       -0.039844826 0.042834707 0.045144178 0.045249518
0000d0 bc d7 ad 3c b0 bf bc 3d 1d 0b b7 3d 80 c1 87 bd
       0.021221034 0.09216249 0.089376666 -0.06628704
0000e0 2a 68 17 3d 8d 2e ae 3b 27 3d 3b 3d ab 4c 21 3d
       0.036964573 0.005315608 0.045712616 0.039379757
0000f0 5d 84 97 3a 55 48 4e 3b af ba 86 3c 85 13 0d 3d
       0.0011559833 0.0031476219 0.01644644 0.034442443
000100 85 ef 1d 3d 40 cd 66 bc d9 b9 18 bd e9 87 18 bd
       0.0385585 -0.014087021 -0.037286613 -0.03723899
000110 26 eb ab bd a0 80 83 bd 8d ab aa 3c 94 ec 8c bd
       -0.083944604 -0.06421018 0.020833755 -0.06881061
000120 2c 35 b8 bd 0f f0 e7 3c f3 37 84 bd c5 fa bb 3c
       -0.08994517 0.028312711 -0.06455984 0.022946725
000130 dd b9 67 3d be d2 c9 3d 52 04 12 3c d1 0e ca 3c
       0.056573737 0.09854649 0.008912163 0.024665268
000140 bc 20 41 3c 64 0c 39 bc 74 30 9d 3d 9d 8f 58 bd
       0.01178759 -0.011294458 0.07675257 -0.052871335
000150 d7 e6 b3 bc 68 42 8b 3d ba ef c6 3d d3 41 b8 bc
       -0.021960659 0.06799775 0.09713693 -0.022492325
000160 e9 23 de 3b 78 d2 90 3d 98 29 9c bd 68 65 a0 bd
       0.006779183 0.07071394 -0.07625121 -0.07831842
000170 9a 97 17 bd af fd 36 3c b5 bc 6e 3c 24 1e c7 bc
       -0.037009813 0.011168881 0.014571358 -0.024306364
000180 51 d2 a9 3d f9 8e a4 3c 01 e0 03 3d 24 ae 32 3c
       0.08292068 0.020087706 0.03219605 0.010905776
000190 a4 ad 45 3d 77 55 36 3c 9f ac 11 3d 37 27 36 bd
       0.0482613 0.011128775 0.035565015 -0.044470992
0001a0 78 50 92 3d dd a9 1f 3d bc 46 11 3d 32 74 fb bc
       0.071442544 0.038980354 0.03546785 -0.030695055
0001b0 59 f1 02 3d ab 31 94 bd ed 2f ca 3b 50 7f 6d bc
       0.03196845 -0.07236036 0.006170264 -0.014495686
0001c0 68 81 85 3d 35 cd 17 3d 4d b1 e4 3c 93 43 85 3d
       0.06518823 0.037060935 0.027916575 0.065070294
0001d0 11 3b 68 bd 32 f8 fc 3c 54 b8 90 bd 26 38 68 3d
       -0.056696955 0.030880067 -0.07066408 0.056694172
0001e0 a1 cd ad 3d d4 17 45 3d 3a 62 f5 bc 47 1f 83 3d
       0.08486486 0.048118427 -0.029954065 0.0640245
0001f0 90 32 eb 3d 41 9b 52 bd bc cb a9 bd 92 bf 45 39
       0.114842534 -0.051417593 -0.082908124 0.0001885875
000200 04 45 c4 bc 31 f4 75 bc 76 9a a8 3b f0 f1 8f bd
       -0.02395869 -0.015011833 0.0051453663 -0.07028568
000210 8b f4 b4 bb 62 17 69 3d 07 01 d5 bd 55 8c cd bc
       -0.005522316 0.056907065 -0.104005866 -0.02509133
000220 52 43 49 3d 6b 8e ac bd e3 2e c9 bd fd f6 19 3c
       0.049136467 -0.084256016 -0.09823396 0.0093972655
000230 5d 9d 2f 3d 16 d2 69 3d 6d 7a 95 bd ba 08 3d 3d
       0.042874683 0.05708512 -0.072987415 0.0461509
000240 93 e5 94 bd 2c 16 a3 3c 43 bf 60 3d 88 94 c3 3d
       -0.0727035 0.019908033 0.0548699 0.095498145
000250 eb 76 1c bd 92 ab 73 bd 28 2d 13 bc 88 35 ef bd
       -0.038199347 -0.059489794 -0.008982934 -0.11680132
000260 c4 d3 69 bd 81 3c 45 bd 47 6a 0a bd f9 e0 2b bd
       -0.05708672 -0.048153404 -0.03379276 -0.041962598
000270 04 3d 8e bc ff cb e5 bc 87 2f 8d bd f0 81 22 bd
       -0.017363079 -0.028051374 -0.06893831 -0.0396747
000280 b1 b7 c6 bc 86 de b0 bc de 39 d7 bc 96 3a 8c 3d
       -0.024257513 -0.021590482 -0.02627271 0.06847112
000290 4e 72 92 3d 39 da 0f bd 1e 2e b9 3c a9 d7 fd 3a
       0.07150708 -0.035120223 0.022604998 0.001936664
0002a0 82 67 46 bd db af 90 3c 9f 35 dd bc 2a ac 1b 3d
       -0.048438556 0.01766198 -0.027003108 0.038005985
0002b0 15 3d 27 bd a9 d6 9b bb 32 68 b8 3c b6 9d 91 3d
       -0.040829737 -0.004755814 0.022510622 0.07110159
0002c0 b4 a4 cf bc 0c d0 c5 bc f9 de 47 3d 0f dc 90 bd
       -0.025347091 -0.024147056 0.048796628 -0.07073223
0002d0 ae 9f 6c 3d 71 93 15 bd 7c cc 64 3d 0e 35 5f bd
       0.05776947 -0.036517564 0.055859074 -0.054493956
0002e0 71 11 92 bd c0 44 cd bb 1e a9 5d bd d1 70 53 bc
       -0.07132233 -0.006264299 -0.05411636 -0.0129053155
0002f0 e6 f6 83 3d 1f b4 a9 bd c4 c3 a7 3d e4 44 35 bc
       0.064435765 -0.082863085 0.08191636 -0.011063788
000300 52 86 8e bd e2 57 8a bd b5 a5 7c bd fc f6 ba 3d
       -0.06959213 -0.067550436 -0.061681468 0.0912914
000310 dc 6c 29 3d a8 95 51 bd e0 9a 45 bc 46 08 d6 3a
       0.041363582 -0.051168114 -0.012060851 0.001632937
000320 a4 8d 7d bd 82 a2 df 3c 9e 12 ab 3c 2c ee 60 bd
       -0.061902657 0.02729917 0.0208829 -0.05491464
000330 33 37 d2 bd be 51 70 bd 06 8f 54 bc 7a 6e 2e 3c
       -0.10264435 -0.058671705 -0.012973553 0.010646457
000340 38 a2 9d bc a5 6d 28 bd b0 e7 04 3c 4b f1 55 3d
       -0.019242391 -0.04112019 0.008111879 0.052232068
000350 77 28 a7 bb 98 e4 b3 bb 96 13 8e 3d 07 df 8d bd
       -0.0051012593 -0.005489897 0.069373295 -0.06927305
000360 b4 80 8c bd f6 1e 10 bd 70 13 2f 3d 38 c2 82 3c
       -0.06860486 -0.035185777 0.042743146 0.015961751
000370 79 90 1a bb d5 6b 20 3c 5c 1b fe 3a 38 e7 b0 bc
       -0.0023584648 0.009791334 0.0019386816 -0.021594629
000380 a6 3d 4c bc ce f6 9d bd f2 08 18 3c ba 01 0f 3d
       -0.01246587 -0.0771309 0.0092794765 0.034913756
000390 99 06 78 bd 7e 1e ba bd e7 87 79 bd d1 3e 4b 3d
       -0.060553167 -0.09087847 -0.060920622 0.049620453
0003a0 49 71 84 3d a0 9c 21 bd 47 0b 20 bd 91 c1 a3 3d
       0.0646692 -0.03945601 -0.039073255 0.07995904
0003b0 3d 4d 91 3d f3 db e0 3d 50 1b 98 3d 60 4f 84 3d
       0.0709481 0.10979452 0.074270844 0.06460452
0003c0 ad 78 8e bc b9 b0 c9 3b c0 fe 08 3d 08 ee 41 3c
       -0.017391527 0.0061551 0.033446074 0.011836536
0003d0 db 35 6f 3d 35 ab c8 bc f1 b2 97 3c 59 cb ea 3c
       0.05840097 -0.0244957 0.018517943 0.028661417
0003e0 6d 4c 1b 3d 37 13 9e 3c 33 ba 08 bd 72 2a 5d 3d
       0.037914682 0.019296272 -0.0333807 0.053995557
0003f0 78 48 ab 3d ef 91 62 bd 07 21 9e 3c ff c9 3d bd
       0.08363432 -0.055314954 0.019302858 -0.046335217

bias f4 [12]
000000 c6 f7 13 bd 18 b2 0f 3d d9 8f 32 bd d2 b4 27 3d
       -0.036124967 0.035081953 -0.043594215 0.040943928
000010 55 e4 49 bd ff 27 2d bd 67 d6 c7 bc 27 1d e5 3c
       -0.04929002 -0.04227447 -0.024394227 0.027968002
000020 b1 5f 83 3d e4 44 4b 3d a5 3b 3f 3d 9d 14 bb bc
       0.06414736 0.049626246 0.04668774 -0.022836978

weight f4 [12]
000000 f6 45 7f 3f 32 6e 82 3f 8a 66 81 3f 4f 19 84 3f
       0.99716127 1.0189879 1.0109417 1.0320224
000010 55 59 77 3f c9 c2 7d 3f c2 9f 7d 3f ae 28 80 3f
       0.96620685 0.99125344 0.99071896 1.0012414
000020 48 3c 6f 3f a4 29 81 3f 56 16 82 3f f3 9a 7d 3f
       0.93451357 1.0090833 1.0163066 0.9906456

bias f4 [12]
000000 27 43 58 bc ce 9d b0 bc c9 79 ec bb 06 d6 fb 3c
       -0.013199604 -0.021559622 -0.0072166664 0.030741703
000010 01 c0 15 be 6e d4 89 bc 6c b8 18 bd 9f 8b fd bc
       -0.14624025 -0.016824927 -0.037285253 -0.030950366
000020 1a 58 0c bd a4 f2 8e bd b6 92 43 3d 7f 05 61 39
       -0.034263708 -0.06979874 0.047747336 0.0002145972

running_mean f4 [12]
000000 20 eb 34 bb d5 e9 87 3e 3d 7a 6d be c6 6c a2 bc
       -0.0027605966 0.26545587 -0.23191161 -0.019827258
000010 d2 ee 83 bd 78 94 bf 3c 2d cb 2b 3e 0c 06 9c 3d
       -0.06442036 0.023386225 0.16776724 0.07618341
000020 ff 43 5a 3e fd f7 30 3e 0c e2 22 3e f2 82 86 be
       0.21315001 0.172821 0.15906543 -0.26271778

running_var f4 [12]
000000 b5 03 dc 3e 58 3b b9 3e a1 da a3 3d d5 7e 32 3e
       0.42971578 0.36178088 0.080006845 0.17431195
000010 f2 29 49 3e 0e c1 3e 3e b4 5f d4 3d a3 06 7a 3d
       0.19644907 0.18628332 0.103698164 0.061041486
000020 a3 0e 91 3e cc 21 10 3e 24 b1 83 3e 19 f7 4c 3e
       0.2833148 0.14075392 0.25721085 0.20016135

weight f4 [6, 12, 5, 5]
000000 b8 5c 12 bd eb 78 9a bd a9 e8 0c bd 76 7a 94 bd
       -0.035732955 -0.075425945 -0.03440157 -0.0724992
000010 fd b4 7e bc 08 38 33 3c b1 05 cb bb be 2c 78 bd
       -0.015546081 0.010938652 -0.006195747 -0.060589544
000020 76 e6 f3 bc 30 20 6c 3c 9a c6 5e bd 78 e3 a4 bc
       -0.029772978 0.014411971 -0.05438862 -0.020127997
000030 9c 1b 1b bd f7 22 30 bd 29 88 d2 3c 09 f6 c2 bc
       -0.037868127 -0.043002095 0.025699692 -0.02379896
000040 2f ca 1f bd e0 e3 4c bd 65 cf 49 3d 89 b2 59 3d
       -0.039011177 -0.050022006 0.049270052 0.05314878
000050 cb 59 ca bc 03 bd 0b 3d 55 2d ec 3c 04 87 6c bd
       -0.02470102 0.034115802 0.02883021 -0.05774595
000060 bb ae a2 3c 17 eb a6 3d a1 2f 81 3d 11 37 41 3d
       0.019858709 0.081503086 0.063079126 0.047171656
000070 e2 c1 54 3c fd 1a 92 3d f2 34 44 3d 76 03 f5 3a
       0.012985678 0.07134054 0.047902055 0.0018693048
000080 d0 33 f4 3b d4 a7 87 bc 6a 5f 2b 3d a5 21 1d 3d
       0.0074524656 -0.016559519 0.04183904 0.038362164
000090 85 70 8a 3c 35 dc 01 bd 99 66 4d 3d 98 ca eb 3c
       0.016899357 -0.031704146 0.050146673 0.028783128
0000a0 56 a5 98 3c 59 3e 42 bc 55 d0 b8 3c dd 26 58 3d
       0.018633526 -0.011855685 0.022560278 0.052771438
0000b0 b3 d5 f3 3c 59 61 71 bc db a6 6c 3d 68 20 35 3d
       0.029764986 -0.014732682 0.057776313 0.044220358
0000c0 86 22 05 3d 50 85 ca 3d 00 88 46 3d 7a 07 7a 3d
       0.032503627 0.098887086 0.048469543 0.061042286
0000d0 81 3a 18 3c db 6e 91 bc d4 22 6d 3d 40 d8 6b bd
       0.009291292 -0.017753055 0.057894543 -0.05757928
0000e0 03 8e 98 bd 57 f4 8a bd 48 fb fe bc ee 1f 28 ba
       -0.074489616 -0.067848854 -0.03112568 -0.00064134493
0000f0 da f4 12 bd e5 5b 1d bd 27 ee eb bc cf 78 38 bd
       -0.03587804 -0.038417716 -0.028800083 -0.045037087
000100 0c 5c 2b bd 4c 00 6b 3d 30 bf 41 3d a1 ae a0 3c
       -0.04183583 0.05737333 0.04730147 0.01961452
000110 3f 32 53 3d 5c 6e f2 bc 03 80 a1 bb fd 8d 40 3d
       0.05156159 -0.02959364 -0.0049285903 0.04701041
000120 f7 5a ad bc 7c 75 75 bd 03 72 3c bd 10 04 61 3c
       -0.02116154 -0.059926495 -0.046007168 0.013733879
000130 f9 47 a8 bd bd de 62 bd 87 50 1d ba cc 22 83 bd
       -0.08216853 -0.0553882 -0.0006001074 -0.06403121
000140 a2 9b 13 bd 99 ab 28 bd 70 b9 19 bd 49 69 c7 ba
       -0.036037095 -0.041179273 -0.037530363 -0.0015213873
000150 16 04 bf bd 2c 6e 07 3d 21 04 0b 3c 5d 34 4b bc
       -0.09326951 0.033064052 0.008484871 -0.012402621
000160 e9 81 59 bd 8f 29 bc 3b 44 df 57 bd 40 bc 7c bd
       -0.053102408 0.005742259 -0.052703157 -0.061702967
000170 5a 82 63 3c b6 c8 22 bd 18 d3 d6 bc 0b 14 f9 3b
       0.013886059 -0.039742194 -0.026223704 0.0076012663
000180 c8 95 c1 3b ae 59 af bc d8 78 b4 bc 2e f3 18 bd
       0.005907748 -0.021405067 -0.022030279 -0.03734129
000190 4f e7 9a bc f3 40 70 3d ea d8 b5 bc 5e a3 bd 3c
       -0.018909125 0.05865569 -0.02219816 0.023149189
0001a0 e2 ef 43 3c ef 65 6e 3d 73 57 cc bc 34 04 1a 3d
       0.011959048 0.05820268 -0.024944043 0.037601665
0001b0 d3 81 18 3d 12 51 37 bb cf 7b 74 3d cb 9e 31 bd
       0.037233185 -0.0027971906 0.059688386 -0.043364327
0001c0 3c 18 50 3d 13 71 4e 3d 3d f9 15 bd aa 71 ae bb
       0.05080436 0.050400805 -0.036614645 -0.0053236084
0001d0 4d 0a d7 bc d2 8a 45 3d 36 94 ad bc 49 33 13 3d
       -0.026250029 0.048228092 -0.021188837 0.03593758
0001e0 ab 92 e2 3b dc 75 24 3d 3e 23 6a bd b1 09 e7 3c
       0.006914457 0.040151462 -0.057162516 0.028202863
0001f0 ee dc 8d 3c 92 1e 34 3d aa 03 a1 3c 19 b3 21 3d
       0.017317262 0.043974467 0.019655067 0.03947744
000200 d2 d0 a9 3b bb 4f f2 3c 41 5f 73 bc 6e 9a 22 bc
       0.005182364 0.029579034 -0.014854253 -0.009924514
000210 dc 55 76 bc 02 27 31 3d ff 0b 39 3d a2 8b 8e 3d
       -0.015035119 0.04325009 0.045177456 0.069602266
000220 16 52 62 3c 32 33 87 3d 8e 00 0d bd a8 6f 4b ba
       0.013813516 0.066015616 -0.034424357 -0.00077604735
000230 b2 63 d5 bb e4 77 83 3c 51 bf 63 3c 7e 1e 2a 3d
       -0.0065121287 0.01604838 0.013900594 0.041532986
000240 4f 75 b9 3b c5 19 95 bc 86 68 10 3d 9d 4b 76 3d
       0.005659736 -0.018200764 0.03525593 0.060130704
000250 49 75 53 3d 73 de 0d 3d 10 7d 7a 3d c0 67 42 3d
       0.051625524 0.034635972 0.061154425 0.047462225
000260 c9 95 a7 bc 90 57 13 3d 8d 9e 02 3d d0 0f 4a 39
       -0.020457165 0.035972178 0.031889487 0.00019270112
000270 08 4a 0f bd fd 7a 49 bd fd 7e 43 3d 92 f8 20 3d
       -0.03498271 -0.049189556 0.047728527 0.039299555
000280 a1 c3 a4 3c cc 48 96 3c 73 3d 9f 3c 39 cc 3b bd
       0.020112814 0.01834526 0.019438481 -0.04584906
000290 1f 99 d9 3c bd d6 9a bc 89 3c 0a 3d 79 23 00 3d
       0.026562272 -0.018901223 0.033749137 0.03128383
0002a0 3e 00 53 3b f0 2d 46 3d 66 28 a6 3d 43 fc 35 3d
       0.003219619 0.048383653 0.08113174 0.04443003
0002b0 56 4e 0c 3d 2f 26 ca bb af 1a 3c 3d 62 ba 4f bd
       0.034254394 -0.0061691026 0.045923885 -0.050714858
0002c0 79 03 1b bb 75 f9 92 bc 44 f5 27 bd fb 8a 7d bd
       -0.0023653193 -0.017941216 -0.041005388 -0.06190012
0002d0 9a 76 c6 bb 50 92 3d 3c dc a8 b5 bd f1 b1 4e bd
       -0.006056619 0.011570528 -0.08870098 -0.050462667
0002e0 69 73 87 bd 55 04 58 bb 46 cc 0b bc 36 56 53 3d
       -0.066138096 -0.0032961566 -0.008532589 0.05159589
0002f0 6a 38 a0 3d 85 ff 3f 3d f7 4a 30 bd 67 be 74 bd
       0.0782326 0.04687454 -0.043040242 -0.059751894
000300 ce 8e 11 bc 72 63 82 bb ea 81 09 bd 10 07 16 3d
       -0.008884145 -0.00397914 -0.03357116 0.03662783
000310 87 d7 f0 bb d9 e1 5d bd c7 ef ad 3c a5 b1 80 bc
       -0.0073499116 -0.054170463 0.021232499 -0.015709708
000320 b0 2a 54 bc f5 2c 0c 3d 02 df 1c 3c a2 58 21 3d
       -0.012949631 0.034222562 0.009574654 0.039391167
000330 0b 5c 6d bc fe f1 e1 bc 84 d2 7e bc a3 18 13 3c
       -0.014487277 -0.027581211 -0.0155531205 0.008978042
000340 98 3b ad 3c 60 85 59 3d 00 39 00 bc b5 7c 4c bc
       0.02114658 0.053105712 -0.00782609 -0.012480904
000350 ea c2 3e bc 40 73 b3 3c ed 21 50 ba ad 6c 31 bc
       -0.011643151 0.021905541 -0.00079396256 -0.010829133
000360 db 8d 2f bd b3 7b 5e bd 31 e4 35 3d 3c 81 6a 3d
       -0.042859893 -0.054317188 0.044407073 0.057252154
000370 ac 68 96 bb 54 a6 9f bc dc e7 05 bd 01 9c 8c 3d
       -0.0045901146 -0.019488491 -0.03269182 0.06865693
000380 66 39 44 3c 95 14 00 3b 22 0a 14 bd 84 ba 52 bd
       0.0119765755 0.0019543518 -0.036142476 -0.051447406
000390 e4 b7 3b 3d 2b 07 a5 bd a1 6a 66 bd 02 ae 84 bc
       0.04582967 -0.08058008 -0.056254033 -0.016196255
0003a0 3f 0a fc 3b 39 e2 af 3b 14 6b b2 bd 0e 5b 19 bd
       0.007691651 0.005367544 -0.0871183 -0.037440352
0003b0 62 ea 81 bd 9a a6 66 bc 83 74 ea bc b4 7b 1d bd
       -0.06343533 -0.014077807 -0.02862001 -0.03844805
0003c0 36 4b c3 ba 68 d5 b5 bd a2 31 b5 bd 69 82 30 3c
       -0.0014899734 -0.08878595 -0.08847357 0.01077328
0003d0 e3 4b a8 bc 39 28 ea 3b 00 69 82 bd ec b4 6d bd
       -0.020543998 0.007145908 -0.063676834 -0.05803387
0003e0 10 11 5d bd 2e cb 76 bb 2e c3 3f bd f6 e9 c8 3c
       -0.05397135 -0.0037657726 -0.046816997 0.024525624
0003f0 13 f8 89 3c 17 77 c5 bd 1c cb 31 bb 06 3d c2 bc
       0.016841924 -0.09641855 -0.002712912 -0.023710739

bias f4 [6]
000000 57 4d 4b bd eb 31 f3 3c 1a 55 50 3d 20 ba 83 bc
       -0.049634304 0.029686889 0.05086241 -0.016079962
000010 5d a6 3d bd fa 27 c3 bc
       -0.046301235 -0.023822773

weight f4 [6]
000000 66 c1 7e 3f 7c 65 7f 3f 7e d1 77 3f 36 c1 80 3f
       0.9951385 0.9976423 0.96804035 1.0058963
000010 d1 89 80 3f f3 5d 82 3f
       1.0042058 1.0184921

bias f4 [6]
000000 e3 28 00 bc 12 18 b1 3c e6 dd 8d bd fe 7f dc 3c
       -0.007822248 0.021617923 -0.069270894 0.0269165
000010 d1 ff 87 3d e6 67 bb bb
       0.0664059 -0.005719173

running_mean f4 [6]
000000 4e cb 57 3e d5 11 63 be 23 4d 4f bd c8 9d 0c bf
       0.21073648 -0.22174771 -0.050610673 -0.54928255
000010 c3 58 dd bd 90 b0 07 be
       -0.108079456 -0.13250947

running_var f4 [6]
000000 34 d6 6e 3f f8 e9 1a 3f 80 f1 b4 3e e4 6d ed 3f
       0.932956 0.6051326 0.353405 1.8549161
000010 ea 0a 92 3f 2c 66 b2 3e
       1.1409581 0.34843576

weight f4 [3, 6, 5, 5]
000000 0b c7 4d 3c b3 40 e5 3d 95 6a 0e bc 25 af 90 bc
       0.012559663 0.11193981 -0.008692403 -0.01766164
000010 19 ba 78 3d e6 38 a6 3d 97 96 8b 3d cd 91 07 3d
       0.06072435 0.08116321 0.06815832 0.03309803
000020 44 9e b6 3d 2a 61 9e 3c fa 80 8f bd 26 2f 4a bc
       0.089169055 0.01933344 -0.07007022 -0.012340343
000030 3c b5 d0 3c 52 ea f3 3c 3d 21 87 3a d1 6e c7 3d
       0.025477044 0.029774819 0.0010309588 0.097379334
000040 cc 38 b5 3c 9c 17 9b 3d a7 39 49 bd 98 ab 1d 3d
       0.02212181 0.075728625 -0.049127247 0.038493723
000050 a0 02 99 3d 00 af b6 3c 67 0c 0d bd 74 62 a1 3c
       0.07471204 0.022300243 -0.034435656 0.019700266
000060 07 3d d3 3d 0d 0b a0 3d 50 6c 0e bd d1 12 d1 3c
       0.103143744 0.07814608 -0.034771264 0.025521668
000070 99 9b 46 bd af 1c c7 3d 6a ba 60 3d 56 e5 01 3d
       -0.048488233 0.09722268 0.05486528 0.031712852
000080 21 e1 0e bd 8c 2c 32 bd 77 38 88 3d 68 23 6f 3d
       -0.03488267 -0.043499514 0.06651395 0.058383375
000090 09 5f 75 bd da 3c 4b bd 8d 9e 7f bd 09 52 6e 3d
       -0.059905086 -0.04961858 -0.062407065 0.058183704
0000a0 f1 47 c5 bd ed 4f c1 bc d6 dc 4e bd c0 e9 56 bc
       -0.09632862 -0.023597682 -0.050503574 -0.013117254
0000b0 67 8a ad bd 07 40 09 3d cf ad 7d bc d0 a5 07 3d
       -0.08473664 0.033508327 -0.015483334 0.033117115
0000c0 b1 07 0f bd dd 3d 09 bd 95 aa 60 bd a6 f4 c5 bd
       -0.034919444 -0.033506263 -0.05485018 -0.096658036
0000d0 19 e4 f2 bc 48 df b4 bd 9d dd 38 bd 3a 8c b7 bc
       -0.029649781 -0.0883165 -0.045133222 -0.022405732
0000e0 58 ed 13 3d 96 0e 14 3d 34 68 15 3d c3 e8 2c bd
       0.03611502 0.036146723 0.03647633 -0.042214166
0000f0 12 d4 cf bc 4b a4 c9 bd 52 c6 48 3b 05 f1 71 bd
       -0.025369678 -0.098457895 0.0030635786 -0.059067745
000100 70 39 2d 3d 50 24 38 bd ee d3 81 3d da 89 90 bd
       0.042291105 -0.044956505 0.063392505 -0.07057543
000110 2a b6 76 bc 0e e7 9b bd bf 89 77 3d 23 76 3c 3d
       -0.01505808 -0.076124296 0.0604341 0.0460111
000120 bf 4e 87 bd ab 24 93 bd c7 aa 2a 3d d2 dc f4 bc
       -0.066068165 -0.07184728 0.041666772 -0.029890452
000130 fe 54 1b bd a2 13 5e 3d 46 a9 3a bd 31 04 c3 3c
       -0.03792285 0.054217942 -0.045571588 0.02380571
000140 0f 41 88 3d 1b 97 17 bc 4a 95 34 3d 12 fb 0a 3c
       0.06653034 -0.009252335 0.044087686 0.008482711
000150 34 42 ef bb e7 4e 23 bd 87 fd 41 3d a7 8b 6f 3d
       -0.007301593 -0.03987017 0.047360923 0.058482792
000160 44 c6 46 3d 00 d2 7a bc 68 3c b4 3d cd f2 34 bb
       0.048528925 -0.015308857 0.08800584 -0.002761054
000170 10 65 8b 3d b4 fe c1 3c 8b 3a 03 bd 3b c4 d9 3c
       0.068063855 0.023681022 -0.032038253 0.026582828
000180 03 35 8a bd 68 86 31 3c c3 14 54 bd 54 15 29 bd
       -0.067483924 0.010835268 -0.051777612 -0.041280106
000190 ff 26 b9 3c 48 ee fd bb 46 94 80 bc b5 b4 a0 3c
       0.022601603 -0.0077493526 -0.015695702 0.019617418
0001a0 c1 f4 e9 3d a5 79 c6 3d 60 1f 73 3c a6 49 88 bd
       0.11423636 0.096911706 0.014839023 -0.06654672
0001b0 64 99 a3 bb 5d cf 0a 3d a7 cd ef bc 2e 17 7d 3d
       -0.004992651 0.033889163 -0.029272867 0.061789684
0001c0 e7 e0 18 3c 51 3a 39 3d be 70 cb bc f8 ec 50 bd
       0.009330965 0.04522163 -0.024834033 -0.05100724
0001d0 a7 49 86 ba d0 b6 13 3d 55 12 f8 bc 60 9c 37 bb
       -0.0010245339 0.036063015 -0.030282179 -0.002801679
0001e0 9a 95 84 3d 48 87 15 3c e9 56 cc bc 8a 35 33 3d
       0.06473847 0.009126492 -0.024943786 0.04375223
0001f0 ce 23 11 bc 24 e3 4e 3d ea 1d 69 bd dd d4 90 3d
       -0.008858634 0.050509587 -0.056913294 0.070718504
000200 df e7 e8 3c 07 38 7b 3d 5d 96 e0 3c df e1 d7 bc
       0.028430877 0.06133273 0.027415449 -0.02635282
000210 62 45 b4 bd 98 06 1c 3d 2e 59 53 bd ff 04 64 3d
       -0.08802296 0.038092226 -0.05159872 0.055668827
000220 47 48 b0 3b 07 6d 59 3c 5b 30 43 bc 69 bb a8 3c
       0.00537971 0.013270623 -0.011913384 0.020597177
000230 5c bc d0 3c 3b 79 96 3d 8d f7 7e bc 35 5a 55 3c
       0.025480442 0.073473416 -0.01556195 0.013021995
000240 5c 0a 0e 3c 9c 45 68 bd 12 54 c8 bd 5f 5f 42 bd
       0.008669462 -0.05670701 -0.0978166 -0.047454234
000250 29 d6 09 bd 2a 0f 2b 3d 66 70 7a bd 68 4a 8e bc
       -0.033651505 0.04176251 -0.061142348 -0.017369464
000260 b1 d0 67 3d a5 94 3a bd 1f c1 5b 3d 55 14 02 3d
       0.056595508 -0.045551915 0.05365097 0.03175767
000270 dc a2 99 3d e9 1e 7c 3d 8c 4a e5 bc 13 6a 80 bd
       0.07501766 0.061552916 -0.027989648 -0.06270232
000280 af f5 7b 3d d8 db f4 3c bf 96 53 3d 6d ea c0 3d
       0.0615136 0.029889986 0.051657435 0.09419713
000290 f9 36 78 bd 2d 6b 96 bb 39 27 8e 3d dc 3f a6 3c
       -0.0605993 -0.004590413 0.06941075 0.020294122
0002a0 36 ea 2b bb f6 75 13 bd e4 ce af bb 52 9e 7d bc
       -0.002623213 -0.03600117 -0.0053652395 -0.015479641
0002b0 b7 ff c3 3c 47 2a 8e 3d 9a b4 b9 3c 68 dc a9 3d
       0.023925645 0.069416575 0.022669125 0.08293992
0002c0 32 18 30 bd 5b 67 25 bd 73 6f 9f bb 2f 2a 96 bd
       -0.042991824 -0.04038177 -0.0048655807 -0.07332265
0002d0 06 5b 2c 3d 74 fd 65 3c 8d 33 e3 bb c7 84 77 3d
       0.042078994 0.014037479 -0.0069336356 0.06042936
0002e0 51 c7 6b bc f7 1d 49 3d 48 7d 08 3d 21 2e 7e bd
       -0.014390782 0.049100842 0.033322603 -0.06205571
0002f0 a1 46 d6 bc 24 4c 72 bd 2e fa 40 bd 9b a8 77 bd
       -0.026156725 -0.059154645 -0.04711359 -0.06046353
000300 84 65 e6 bc 99 25 b2 bd 60 30 0e 3c 87 37 85 3d
       -0.028124578 -0.086985774 0.008678526 0.065047316
000310 8b df 81 3d 26 a5 eb bb 3d cb 14 bb ce 88 ba bd
       0.063414656 -0.007191318 -0.0022704147 -0.09108125
000320 4f 1a 54 3d 3d 91 94 3d ae 03 bf 3d 91 73 b4 3d
       0.051782902 0.072542645 0.09326874 0.08811105
000330 32 d6 79 bd 36 64 db 3c f0 1e 59 bd 9b 22 67 bb
       -0.06099529 0.026781183 -0.05300802 -0.003526843
000340 6a 44 9a bd 74 37 90 bb c1 17 80 bd bb 10 bd 3b
       -0.0753258 -0.004401142 -0.06254531 0.0057698167
000350 b8 9c bd 3c 90 08 f3 3c 4f f5 17 3d e1 21 3c 3d
       0.023146018 0.029667169 0.03709918 0.045930747
000360 fc 16 7f 3d 35 c6 70 bc 7e 88 23 3d 04 e2 d2 bb
       0.06227778 -0.014695694 0.03992509 -0.0064356346
000370 80 b8 7e 3d 3e 2d 5e 3d be b4 70 3d 36 c8 65 bc
       0.06218767 0.054242365 0.05876612 -0.014024785
000380 86 bc 16 3d 82 d9 98 bd cd 82 f8 bc 40 6e 8a bd
       0.036800884 -0.07463361 -0.030335808 -0.0675931
000390 0b 3e de 3c 5f b6 a5 3d d4 85 94 3c 4f e1 42 3d
       0.027129194 0.08091425 0.01813022 0.047578152
0003a0 bf ba ec 3c 9a ad 92 bc 10 5e ca 3a 78 52 ce 3d
       0.028897641 -0.017905045 0.001543941 0.100743234
0003b0 21 18 1d bd 33 7f a9 bb 80 66 0a 3e a3 d0 c2 3c
       -0.03835309 -0.005172634 0.13515663 0.023781126
0003c0 ae b0 c1 3d de 6d 8f 3d 58 93 24 bd 8f fd f2 3d
       0.09457527 0.070033774 -0.04017958 0.11864769
0003d0 ae cb 89 3d ad 0c 0e bd 57 a5 a0 bd 90 5d 3d 3d
       0.06728302 -0.034680057 -0.07844036 0.046231806
0003e0 a1 62 8d 3c 0e 05 79 3d 31 67 4a 3d 1f 10 65 3d
       0.017258944 0.060795836 0.049414817 0.055923577
0003f0 b7 9b 1e bd 67 5c c3 3c a8 cd c4 bd be 08 46 3c
       -0.03872272 0.023847772 -0.09609538 0.012087045

bias f4 [3]
000000 97 03 cb 3c 21 e8 b1 3d ce 21 79 3d
       0.024781985 0.08686853 0.060823254

weight f4 [3]
000000 89 7f b5 3f 25 dc 99 3f fa 77 98 3f
       1.4179546 1.2020308 1.1911614

bias f4 [3]
000000 f6 a2 80 3e d5 37 28 3e b1 7e 3a 3e
       0.2512433 0.16427548 0.18212391

running_mean f4 [3]
000000 52 0e 84 3e 90 86 f2 3e 2d e4 ca 3e
       0.25792176 0.47368288 0.3962721

running_var f4 [3]
000000 a3 db db 3e f7 72 11 3f 42 c0 35 3f
       0.42941007 0.5681605 0.7099649

weight f4 [1, 3, 3, 3]
000000 d4 37 e3 3e 55 32 6c 3e d5 7e 5c 3e 35 de 7e 3e
       0.4437853 0.23066075 0.21532758 0.24889453
000010 30 ac 55 3e 79 3b 89 3e 44 6f 09 3f 2d b1 07 3f
       0.20866466 0.26803187 0.536854 0.53004724
000020 04 5b 01 3f 7f ff 82 be 3c da 10 3c a6 0a 33 be
       0.50529504 -0.25585553 0.008841094 -0.17484531
000030 ff e3 b3 bd ec 0d b5 be 42 29 9b be ce 94 8d be
       -0.08783721 -0.35362184 -0.30304915 -0.2765259
000040 f6 e1 f3 bb 22 1b 98 be 7c fd 6f be 16 6b 91 be
       -0.007442708 -0.297082 -0.2343654 -0.28402013
000050 a6 71 a0 be 97 e2 84 be 23 5e 14 be 87 80 1e be
       -0.31336707 -0.25954124 -0.14489035 -0.15478717
000060 96 31 8e be 56 ce ff bd d4 32 78 3b
       -0.27772206 -0.12490527 0.0037872093
